<?xml version="1.0" ?>
<net name="ecg_17920_ir10_fp32" version="10">
	<layers>
		<layer id="0" name="inputs" type="Parameter" version="opset1">
			<data element_type="f32" shape="1,17920,1"/>
			<output>
				<port id="0" precision="FP32">
					<dim>1</dim>
					<dim>17920</dim>
					<dim>1</dim>
				</port>
			</output>
		</layer>
		<layer id="1" name="conv1d_1/convolution/ExpandDims/dim/Output_0/Data__const" type="Const" version="opset1">
			<data element_type="i64" offset="0" shape="1" size="8"/>
			<output>
				<port id="1" precision="I64">
					<dim>1</dim>
				</port>
			</output>
		</layer>
		<layer id="2" name="conv1d_1/convolution/ExpandDims" type="Unsqueeze" version="opset1">
			<input>
				<port id="0">
					<dim>1</dim>
					<dim>17920</dim>
					<dim>1</dim>
				</port>
				<port id="1">
					<dim>1</dim>
				</port>
			</input>
			<output>
				<port id="2" precision="FP32">
					<dim>1</dim>
					<dim>1</dim>
					<dim>17920</dim>
					<dim>1</dim>
				</port>
			</output>
		</layer>
		<layer id="3" name="conv1d_1/convolution/ExpandDims/Transpose/Cast_124976_const" type="Const" version="opset1">
			<data element_type="i64" offset="8" shape="4" size="32"/>
			<output>
				<port id="1" precision="I64">
					<dim>4</dim>
				</port>
			</output>
		</layer>
		<layer id="4" name="conv1d_1/convolution/ExpandDims/Transpose" type="Transpose" version="opset1">
			<input>
				<port id="0">
					<dim>1</dim>
					<dim>1</dim>
					<dim>17920</dim>
					<dim>1</dim>
				</port>
				<port id="1">
					<dim>4</dim>
				</port>
			</input>
			<output>
				<port id="2" precision="FP32">
					<dim>1</dim>
					<dim>1</dim>
					<dim>1</dim>
					<dim>17920</dim>
				</port>
			</output>
		</layer>
		<layer id="5" name="conv1d_1/convolution/ExpandDims_1/Output_0/Data__const" type="Const" version="opset1">
			<data element_type="f32" offset="40" shape="32,1,1,16" size="2048"/>
			<output>
				<port id="1" precision="FP32">
					<dim>32</dim>
					<dim>1</dim>
					<dim>1</dim>
					<dim>16</dim>
				</port>
			</output>
		</layer>
		<layer id="6" name="conv1d_1/convolution/Conv2D" type="Convolution" version="opset1">
			<data auto_pad="same_upper" dilations="1,1" output_padding="0,0" pads_begin="0,7" pads_end="0,8" strides="1,1"/>
			<input>
				<port id="0">
					<dim>1</dim>
					<dim>1</dim>
					<dim>1</dim>
					<dim>17920</dim>
				</port>
				<port id="1">
					<dim>32</dim>
					<dim>1</dim>
					<dim>1</dim>
					<dim>16</dim>
				</port>
			</input>
			<output>
				<port id="2" precision="FP32">
					<dim>1</dim>
					<dim>32</dim>
					<dim>1</dim>
					<dim>17920</dim>
				</port>
			</output>
		</layer>
		<layer id="7" name="conv1d_1/convolution/Conv2D/Transpose/Cast_124970_const" type="Const" version="opset1">
			<data element_type="i64" offset="2088" shape="4" size="32"/>
			<output>
				<port id="1" precision="I64">
					<dim>4</dim>
				</port>
			</output>
		</layer>
		<layer id="8" name="conv1d_1/convolution/Conv2D/Transpose" type="Transpose" version="opset1">
			<input>
				<port id="0">
					<dim>1</dim>
					<dim>32</dim>
					<dim>1</dim>
					<dim>17920</dim>
				</port>
				<port id="1">
					<dim>4</dim>
				</port>
			</input>
			<output>
				<port id="2" precision="FP32">
					<dim>1</dim>
					<dim>1</dim>
					<dim>17920</dim>
					<dim>32</dim>
				</port>
			</output>
		</layer>
		<layer id="9" name="conv1d_1/convolution/Squeeze/Dims/Output_0/Data__const" type="Const" version="opset1">
			<data element_type="i64" offset="0" shape="1" size="8"/>
			<output>
				<port id="1" precision="I64">
					<dim>1</dim>
				</port>
			</output>
		</layer>
		<layer id="10" name="conv1d_1/convolution/Squeeze" type="Squeeze" version="opset1">
			<input>
				<port id="0">
					<dim>1</dim>
					<dim>1</dim>
					<dim>17920</dim>
					<dim>32</dim>
				</port>
				<port id="1">
					<dim>1</dim>
				</port>
			</input>
			<output>
				<port id="2" precision="FP32">
					<dim>1</dim>
					<dim>17920</dim>
					<dim>32</dim>
				</port>
			</output>
		</layer>
		<layer id="11" name="data_mul_13058/copy_const" type="Const" version="opset1">
			<data element_type="f32" offset="2120" shape="1,1,32" size="128"/>
			<output>
				<port id="1" precision="FP32">
					<dim>1</dim>
					<dim>1</dim>
					<dim>32</dim>
				</port>
			</output>
		</layer>
		<layer id="12" name="batch_normalization_1/cond/batchnorm/mul_1/Fused_Mul_" type="Multiply" version="opset1">
			<input>
				<port id="0">
					<dim>1</dim>
					<dim>17920</dim>
					<dim>32</dim>
				</port>
				<port id="1">
					<dim>1</dim>
					<dim>1</dim>
					<dim>32</dim>
				</port>
			</input>
			<output>
				<port id="2" precision="FP32">
					<dim>1</dim>
					<dim>17920</dim>
					<dim>32</dim>
				</port>
			</output>
		</layer>
		<layer id="13" name="data_add_13060_const" type="Const" version="opset1">
			<data element_type="f32" offset="2248" shape="1,1,32" size="128"/>
			<output>
				<port id="1" precision="FP32">
					<dim>1</dim>
					<dim>1</dim>
					<dim>32</dim>
				</port>
			</output>
		</layer>
		<layer id="14" name="conv1d_1/add/Fused_Add_" type="Add" version="opset1">
			<input>
				<port id="0">
					<dim>1</dim>
					<dim>17920</dim>
					<dim>32</dim>
				</port>
				<port id="1">
					<dim>1</dim>
					<dim>1</dim>
					<dim>32</dim>
				</port>
			</input>
			<output>
				<port id="2" precision="FP32">
					<dim>1</dim>
					<dim>17920</dim>
					<dim>32</dim>
				</port>
			</output>
		</layer>
		<layer id="15" name="activation_1/Relu" type="ReLU" version="opset1">
			<input>
				<port id="0">
					<dim>1</dim>
					<dim>17920</dim>
					<dim>32</dim>
				</port>
			</input>
			<output>
				<port id="1" precision="FP32">
					<dim>1</dim>
					<dim>17920</dim>
					<dim>32</dim>
				</port>
			</output>
		</layer>
		<layer id="16" name="max_pooling1d_1/ExpandDims/dim/Output_0/Data__const" type="Const" version="opset1">
			<data element_type="i64" offset="2376" shape="1" size="8"/>
			<output>
				<port id="1" precision="I64">
					<dim>1</dim>
				</port>
			</output>
		</layer>
		<layer id="17" name="max_pooling1d_1/ExpandDims" type="Unsqueeze" version="opset1">
			<input>
				<port id="0">
					<dim>1</dim>
					<dim>17920</dim>
					<dim>32</dim>
				</port>
				<port id="1">
					<dim>1</dim>
				</port>
			</input>
			<output>
				<port id="2" precision="FP32">
					<dim>1</dim>
					<dim>17920</dim>
					<dim>1</dim>
					<dim>32</dim>
				</port>
			</output>
		</layer>
		<layer id="18" name="max_pooling1d_1/ExpandDims/Transpose/Cast_124990_const" type="Const" version="opset1">
			<data element_type="i64" offset="8" shape="4" size="32"/>
			<output>
				<port id="1" precision="I64">
					<dim>4</dim>
				</port>
			</output>
		</layer>
		<layer id="19" name="max_pooling1d_1/ExpandDims/Transpose" type="Transpose" version="opset1">
			<input>
				<port id="0">
					<dim>1</dim>
					<dim>17920</dim>
					<dim>1</dim>
					<dim>32</dim>
				</port>
				<port id="1">
					<dim>4</dim>
				</port>
			</input>
			<output>
				<port id="2" precision="FP32">
					<dim>1</dim>
					<dim>32</dim>
					<dim>17920</dim>
					<dim>1</dim>
				</port>
			</output>
		</layer>
		<layer id="20" name="max_pooling1d_1/MaxPool" type="MaxPool" version="opset1">
			<data auto_pad="valid" kernel="1,1" pads_begin="0,0" pads_end="0,0" strides="1,1"/>
			<input>
				<port id="0">
					<dim>1</dim>
					<dim>32</dim>
					<dim>17920</dim>
					<dim>1</dim>
				</port>
			</input>
			<output>
				<port id="1" precision="FP32">
					<dim>1</dim>
					<dim>32</dim>
					<dim>17920</dim>
					<dim>1</dim>
				</port>
			</output>
		</layer>
		<layer id="21" name="max_pooling1d_1/MaxPool/Transpose/Cast_124966_const" type="Const" version="opset1">
			<data element_type="i64" offset="2088" shape="4" size="32"/>
			<output>
				<port id="1" precision="I64">
					<dim>4</dim>
				</port>
			</output>
		</layer>
		<layer id="22" name="max_pooling1d_1/MaxPool/Transpose" type="Transpose" version="opset1">
			<input>
				<port id="0">
					<dim>1</dim>
					<dim>32</dim>
					<dim>17920</dim>
					<dim>1</dim>
				</port>
				<port id="1">
					<dim>4</dim>
				</port>
			</input>
			<output>
				<port id="2" precision="FP32">
					<dim>1</dim>
					<dim>17920</dim>
					<dim>1</dim>
					<dim>32</dim>
				</port>
			</output>
		</layer>
		<layer id="23" name="max_pooling1d_1/Squeeze/Dims/Output_0/Data__const" type="Const" version="opset1">
			<data element_type="i64" offset="2376" shape="1" size="8"/>
			<output>
				<port id="1" precision="I64">
					<dim>1</dim>
				</port>
			</output>
		</layer>
		<layer id="24" name="max_pooling1d_1/Squeeze" type="Squeeze" version="opset1">
			<input>
				<port id="0">
					<dim>1</dim>
					<dim>17920</dim>
					<dim>1</dim>
					<dim>32</dim>
				</port>
				<port id="1">
					<dim>1</dim>
				</port>
			</input>
			<output>
				<port id="2" precision="FP32">
					<dim>1</dim>
					<dim>17920</dim>
					<dim>32</dim>
				</port>
			</output>
		</layer>
		<layer id="25" name="conv1d_2/convolution/ExpandDims/dim/Output_0/Data__const" type="Const" version="opset1">
			<data element_type="i64" offset="0" shape="1" size="8"/>
			<output>
				<port id="1" precision="I64">
					<dim>1</dim>
				</port>
			</output>
		</layer>
		<layer id="26" name="conv1d_2/convolution/ExpandDims" type="Unsqueeze" version="opset1">
			<input>
				<port id="0">
					<dim>1</dim>
					<dim>17920</dim>
					<dim>32</dim>
				</port>
				<port id="1">
					<dim>1</dim>
				</port>
			</input>
			<output>
				<port id="2" precision="FP32">
					<dim>1</dim>
					<dim>1</dim>
					<dim>17920</dim>
					<dim>32</dim>
				</port>
			</output>
		</layer>
		<layer id="27" name="conv1d_2/convolution/ExpandDims/Transpose/Cast_125050_const" type="Const" version="opset1">
			<data element_type="i64" offset="8" shape="4" size="32"/>
			<output>
				<port id="1" precision="I64">
					<dim>4</dim>
				</port>
			</output>
		</layer>
		<layer id="28" name="conv1d_2/convolution/ExpandDims/Transpose" type="Transpose" version="opset1">
			<input>
				<port id="0">
					<dim>1</dim>
					<dim>1</dim>
					<dim>17920</dim>
					<dim>32</dim>
				</port>
				<port id="1">
					<dim>4</dim>
				</port>
			</input>
			<output>
				<port id="2" precision="FP32">
					<dim>1</dim>
					<dim>32</dim>
					<dim>1</dim>
					<dim>17920</dim>
				</port>
			</output>
		</layer>
		<layer id="29" name="conv1d_2/convolution/ExpandDims_1/Output_0/Data__const" type="Const" version="opset1">
			<data element_type="f32" offset="2384" shape="32,32,1,16" size="65536"/>
			<output>
				<port id="1" precision="FP32">
					<dim>32</dim>
					<dim>32</dim>
					<dim>1</dim>
					<dim>16</dim>
				</port>
			</output>
		</layer>
		<layer id="30" name="conv1d_2/convolution/Conv2D" type="Convolution" version="opset1">
			<data auto_pad="same_upper" dilations="1,1" output_padding="0,0" pads_begin="0,7" pads_end="0,8" strides="1,1"/>
			<input>
				<port id="0">
					<dim>1</dim>
					<dim>32</dim>
					<dim>1</dim>
					<dim>17920</dim>
				</port>
				<port id="1">
					<dim>32</dim>
					<dim>32</dim>
					<dim>1</dim>
					<dim>16</dim>
				</port>
			</input>
			<output>
				<port id="2" precision="FP32">
					<dim>1</dim>
					<dim>32</dim>
					<dim>1</dim>
					<dim>17920</dim>
				</port>
			</output>
		</layer>
		<layer id="31" name="conv1d_2/convolution/Conv2D/Transpose/Cast_124942_const" type="Const" version="opset1">
			<data element_type="i64" offset="2088" shape="4" size="32"/>
			<output>
				<port id="1" precision="I64">
					<dim>4</dim>
				</port>
			</output>
		</layer>
		<layer id="32" name="conv1d_2/convolution/Conv2D/Transpose" type="Transpose" version="opset1">
			<input>
				<port id="0">
					<dim>1</dim>
					<dim>32</dim>
					<dim>1</dim>
					<dim>17920</dim>
				</port>
				<port id="1">
					<dim>4</dim>
				</port>
			</input>
			<output>
				<port id="2" precision="FP32">
					<dim>1</dim>
					<dim>1</dim>
					<dim>17920</dim>
					<dim>32</dim>
				</port>
			</output>
		</layer>
		<layer id="33" name="conv1d_2/convolution/Squeeze/Dims/Output_0/Data__const" type="Const" version="opset1">
			<data element_type="i64" offset="0" shape="1" size="8"/>
			<output>
				<port id="1" precision="I64">
					<dim>1</dim>
				</port>
			</output>
		</layer>
		<layer id="34" name="conv1d_2/convolution/Squeeze" type="Squeeze" version="opset1">
			<input>
				<port id="0">
					<dim>1</dim>
					<dim>1</dim>
					<dim>17920</dim>
					<dim>32</dim>
				</port>
				<port id="1">
					<dim>1</dim>
				</port>
			</input>
			<output>
				<port id="2" precision="FP32">
					<dim>1</dim>
					<dim>17920</dim>
					<dim>32</dim>
				</port>
			</output>
		</layer>
		<layer id="35" name="data_mul_1306213066/copy_const" type="Const" version="opset1">
			<data element_type="f32" offset="67920" shape="1,1,32" size="128"/>
			<output>
				<port id="1" precision="FP32">
					<dim>1</dim>
					<dim>1</dim>
					<dim>32</dim>
				</port>
			</output>
		</layer>
		<layer id="36" name="batch_normalization_2/cond/batchnorm/mul_1/Fused_Mul_" type="Multiply" version="opset1">
			<input>
				<port id="0">
					<dim>1</dim>
					<dim>17920</dim>
					<dim>32</dim>
				</port>
				<port id="1">
					<dim>1</dim>
					<dim>1</dim>
					<dim>32</dim>
				</port>
			</input>
			<output>
				<port id="2" precision="FP32">
					<dim>1</dim>
					<dim>17920</dim>
					<dim>32</dim>
				</port>
			</output>
		</layer>
		<layer id="37" name="data_add_1306313068_const" type="Const" version="opset1">
			<data element_type="f32" offset="68048" shape="1,1,32" size="128"/>
			<output>
				<port id="1" precision="FP32">
					<dim>1</dim>
					<dim>1</dim>
					<dim>32</dim>
				</port>
			</output>
		</layer>
		<layer id="38" name="conv1d_2/add/Fused_Add_" type="Add" version="opset1">
			<input>
				<port id="0">
					<dim>1</dim>
					<dim>17920</dim>
					<dim>32</dim>
				</port>
				<port id="1">
					<dim>1</dim>
					<dim>1</dim>
					<dim>32</dim>
				</port>
			</input>
			<output>
				<port id="2" precision="FP32">
					<dim>1</dim>
					<dim>17920</dim>
					<dim>32</dim>
				</port>
			</output>
		</layer>
		<layer id="39" name="activation_2/Relu" type="ReLU" version="opset1">
			<input>
				<port id="0">
					<dim>1</dim>
					<dim>17920</dim>
					<dim>32</dim>
				</port>
			</input>
			<output>
				<port id="1" precision="FP32">
					<dim>1</dim>
					<dim>17920</dim>
					<dim>32</dim>
				</port>
			</output>
		</layer>
		<layer id="40" name="conv1d_3/convolution/ExpandDims/dim/Output_0/Data__const" type="Const" version="opset1">
			<data element_type="i64" offset="0" shape="1" size="8"/>
			<output>
				<port id="1" precision="I64">
					<dim>1</dim>
				</port>
			</output>
		</layer>
		<layer id="41" name="conv1d_3/convolution/ExpandDims" type="Unsqueeze" version="opset1">
			<input>
				<port id="0">
					<dim>1</dim>
					<dim>17920</dim>
					<dim>32</dim>
				</port>
				<port id="1">
					<dim>1</dim>
				</port>
			</input>
			<output>
				<port id="2" precision="FP32">
					<dim>1</dim>
					<dim>1</dim>
					<dim>17920</dim>
					<dim>32</dim>
				</port>
			</output>
		</layer>
		<layer id="42" name="conv1d_3/convolution/ExpandDims/Transpose/Cast_124974_const" type="Const" version="opset1">
			<data element_type="i64" offset="8" shape="4" size="32"/>
			<output>
				<port id="1" precision="I64">
					<dim>4</dim>
				</port>
			</output>
		</layer>
		<layer id="43" name="conv1d_3/convolution/ExpandDims/Transpose" type="Transpose" version="opset1">
			<input>
				<port id="0">
					<dim>1</dim>
					<dim>1</dim>
					<dim>17920</dim>
					<dim>32</dim>
				</port>
				<port id="1">
					<dim>4</dim>
				</port>
			</input>
			<output>
				<port id="2" precision="FP32">
					<dim>1</dim>
					<dim>32</dim>
					<dim>1</dim>
					<dim>17920</dim>
				</port>
			</output>
		</layer>
		<layer id="44" name="conv1d_3/convolution/ExpandDims_1/Output_0/Data__const" type="Const" version="opset1">
			<data element_type="f32" offset="68176" shape="32,32,1,16" size="65536"/>
			<output>
				<port id="1" precision="FP32">
					<dim>32</dim>
					<dim>32</dim>
					<dim>1</dim>
					<dim>16</dim>
				</port>
			</output>
		</layer>
		<layer id="45" name="conv1d_3/convolution/Conv2D" type="Convolution" version="opset1">
			<data auto_pad="same_upper" dilations="1,1" output_padding="0,0" pads_begin="0,7" pads_end="0,8" strides="1,1"/>
			<input>
				<port id="0">
					<dim>1</dim>
					<dim>32</dim>
					<dim>1</dim>
					<dim>17920</dim>
				</port>
				<port id="1">
					<dim>32</dim>
					<dim>32</dim>
					<dim>1</dim>
					<dim>16</dim>
				</port>
			</input>
			<output>
				<port id="2" precision="FP32">
					<dim>1</dim>
					<dim>32</dim>
					<dim>1</dim>
					<dim>17920</dim>
				</port>
			</output>
		</layer>
		<layer id="46" name="conv1d_3/convolution/Conv2D/Transpose/Cast_125076_const" type="Const" version="opset1">
			<data element_type="i64" offset="2088" shape="4" size="32"/>
			<output>
				<port id="1" precision="I64">
					<dim>4</dim>
				</port>
			</output>
		</layer>
		<layer id="47" name="conv1d_3/convolution/Conv2D/Transpose" type="Transpose" version="opset1">
			<input>
				<port id="0">
					<dim>1</dim>
					<dim>32</dim>
					<dim>1</dim>
					<dim>17920</dim>
				</port>
				<port id="1">
					<dim>4</dim>
				</port>
			</input>
			<output>
				<port id="2" precision="FP32">
					<dim>1</dim>
					<dim>1</dim>
					<dim>17920</dim>
					<dim>32</dim>
				</port>
			</output>
		</layer>
		<layer id="48" name="conv1d_3/convolution/Squeeze/Dims/Output_0/Data__const" type="Const" version="opset1">
			<data element_type="i64" offset="0" shape="1" size="8"/>
			<output>
				<port id="1" precision="I64">
					<dim>1</dim>
				</port>
			</output>
		</layer>
		<layer id="49" name="conv1d_3/convolution/Squeeze" type="Squeeze" version="opset1">
			<input>
				<port id="0">
					<dim>1</dim>
					<dim>1</dim>
					<dim>17920</dim>
					<dim>32</dim>
				</port>
				<port id="1">
					<dim>1</dim>
				</port>
			</input>
			<output>
				<port id="2" precision="FP32">
					<dim>1</dim>
					<dim>17920</dim>
					<dim>32</dim>
				</port>
			</output>
		</layer>
		<layer id="50" name="conv1d_3/Reshape/Output_0/Data__const" type="Const" version="opset1">
			<data element_type="f32" offset="133712" shape="1,1,32" size="128"/>
			<output>
				<port id="1" precision="FP32">
					<dim>1</dim>
					<dim>1</dim>
					<dim>32</dim>
				</port>
			</output>
		</layer>
		<layer id="51" name="conv1d_3/add" type="Add" version="opset1">
			<input>
				<port id="0">
					<dim>1</dim>
					<dim>17920</dim>
					<dim>32</dim>
				</port>
				<port id="1">
					<dim>1</dim>
					<dim>1</dim>
					<dim>32</dim>
				</port>
			</input>
			<output>
				<port id="2" precision="FP32">
					<dim>1</dim>
					<dim>17920</dim>
					<dim>32</dim>
				</port>
			</output>
		</layer>
		<layer id="52" name="add_1/add" type="Add" version="opset1">
			<input>
				<port id="0">
					<dim>1</dim>
					<dim>17920</dim>
					<dim>32</dim>
				</port>
				<port id="1">
					<dim>1</dim>
					<dim>17920</dim>
					<dim>32</dim>
				</port>
			</input>
			<output>
				<port id="2" precision="FP32">
					<dim>1</dim>
					<dim>17920</dim>
					<dim>32</dim>
				</port>
			</output>
		</layer>
		<layer id="53" name="max_pooling1d_2/ExpandDims/dim/Output_0/Data__const" type="Const" version="opset1">
			<data element_type="i64" offset="2376" shape="1" size="8"/>
			<output>
				<port id="1" precision="I64">
					<dim>1</dim>
				</port>
			</output>
		</layer>
		<layer id="54" name="max_pooling1d_2/ExpandDims" type="Unsqueeze" version="opset1">
			<input>
				<port id="0">
					<dim>1</dim>
					<dim>17920</dim>
					<dim>32</dim>
				</port>
				<port id="1">
					<dim>1</dim>
				</port>
			</input>
			<output>
				<port id="2" precision="FP32">
					<dim>1</dim>
					<dim>17920</dim>
					<dim>1</dim>
					<dim>32</dim>
				</port>
			</output>
		</layer>
		<layer id="55" name="max_pooling1d_2/ExpandDims/Transpose/Cast_125026_const" type="Const" version="opset1">
			<data element_type="i64" offset="8" shape="4" size="32"/>
			<output>
				<port id="1" precision="I64">
					<dim>4</dim>
				</port>
			</output>
		</layer>
		<layer id="56" name="max_pooling1d_2/ExpandDims/Transpose" type="Transpose" version="opset1">
			<input>
				<port id="0">
					<dim>1</dim>
					<dim>17920</dim>
					<dim>1</dim>
					<dim>32</dim>
				</port>
				<port id="1">
					<dim>4</dim>
				</port>
			</input>
			<output>
				<port id="2" precision="FP32">
					<dim>1</dim>
					<dim>32</dim>
					<dim>17920</dim>
					<dim>1</dim>
				</port>
			</output>
		</layer>
		<layer id="57" name="max_pooling1d_2/MaxPool" type="MaxPool" version="opset1">
			<data auto_pad="valid" kernel="2,1" pads_begin="0,0" pads_end="0,0" strides="2,1"/>
			<input>
				<port id="0">
					<dim>1</dim>
					<dim>32</dim>
					<dim>17920</dim>
					<dim>1</dim>
				</port>
			</input>
			<output>
				<port id="1" precision="FP32">
					<dim>1</dim>
					<dim>32</dim>
					<dim>8960</dim>
					<dim>1</dim>
				</port>
			</output>
		</layer>
		<layer id="58" name="max_pooling1d_2/MaxPool/Transpose/Cast_125074_const" type="Const" version="opset1">
			<data element_type="i64" offset="2088" shape="4" size="32"/>
			<output>
				<port id="1" precision="I64">
					<dim>4</dim>
				</port>
			</output>
		</layer>
		<layer id="59" name="max_pooling1d_2/MaxPool/Transpose" type="Transpose" version="opset1">
			<input>
				<port id="0">
					<dim>1</dim>
					<dim>32</dim>
					<dim>8960</dim>
					<dim>1</dim>
				</port>
				<port id="1">
					<dim>4</dim>
				</port>
			</input>
			<output>
				<port id="2" precision="FP32">
					<dim>1</dim>
					<dim>8960</dim>
					<dim>1</dim>
					<dim>32</dim>
				</port>
			</output>
		</layer>
		<layer id="60" name="max_pooling1d_2/Squeeze/Dims/Output_0/Data__const" type="Const" version="opset1">
			<data element_type="i64" offset="2376" shape="1" size="8"/>
			<output>
				<port id="1" precision="I64">
					<dim>1</dim>
				</port>
			</output>
		</layer>
		<layer id="61" name="max_pooling1d_2/Squeeze" type="Squeeze" version="opset1">
			<input>
				<port id="0">
					<dim>1</dim>
					<dim>8960</dim>
					<dim>1</dim>
					<dim>32</dim>
				</port>
				<port id="1">
					<dim>1</dim>
				</port>
			</input>
			<output>
				<port id="2" precision="FP32">
					<dim>1</dim>
					<dim>8960</dim>
					<dim>32</dim>
				</port>
			</output>
		</layer>
		<layer id="62" name="batch_normalization_3/cond/batchnorm/mul/Output_0/Data_/copy_const" type="Const" version="opset1">
			<data element_type="f32" offset="133840" shape="1,1,32" size="128"/>
			<output>
				<port id="1" precision="FP32">
					<dim>1</dim>
					<dim>1</dim>
					<dim>32</dim>
				</port>
			</output>
		</layer>
		<layer id="63" name="batch_normalization_3/cond/batchnorm/mul_1" type="Multiply" version="opset1">
			<input>
				<port id="0">
					<dim>1</dim>
					<dim>17920</dim>
					<dim>32</dim>
				</port>
				<port id="1">
					<dim>1</dim>
					<dim>1</dim>
					<dim>32</dim>
				</port>
			</input>
			<output>
				<port id="2" precision="FP32">
					<dim>1</dim>
					<dim>17920</dim>
					<dim>32</dim>
				</port>
			</output>
		</layer>
		<layer id="64" name="batch_normalization_3/cond/batchnorm/sub/Output_0/Data_/copy_const" type="Const" version="opset1">
			<data element_type="f32" offset="133968" shape="1,1,32" size="128"/>
			<output>
				<port id="1" precision="FP32">
					<dim>1</dim>
					<dim>1</dim>
					<dim>32</dim>
				</port>
			</output>
		</layer>
		<layer id="65" name="batch_normalization_3/cond/batchnorm/add_1" type="Add" version="opset1">
			<input>
				<port id="0">
					<dim>1</dim>
					<dim>17920</dim>
					<dim>32</dim>
				</port>
				<port id="1">
					<dim>1</dim>
					<dim>1</dim>
					<dim>32</dim>
				</port>
			</input>
			<output>
				<port id="2" precision="FP32">
					<dim>1</dim>
					<dim>17920</dim>
					<dim>32</dim>
				</port>
			</output>
		</layer>
		<layer id="66" name="activation_3/Relu" type="ReLU" version="opset1">
			<input>
				<port id="0">
					<dim>1</dim>
					<dim>17920</dim>
					<dim>32</dim>
				</port>
			</input>
			<output>
				<port id="1" precision="FP32">
					<dim>1</dim>
					<dim>17920</dim>
					<dim>32</dim>
				</port>
			</output>
		</layer>
		<layer id="67" name="conv1d_4/convolution/ExpandDims/dim/Output_0/Data__const" type="Const" version="opset1">
			<data element_type="i64" offset="0" shape="1" size="8"/>
			<output>
				<port id="1" precision="I64">
					<dim>1</dim>
				</port>
			</output>
		</layer>
		<layer id="68" name="conv1d_4/convolution/ExpandDims" type="Unsqueeze" version="opset1">
			<input>
				<port id="0">
					<dim>1</dim>
					<dim>17920</dim>
					<dim>32</dim>
				</port>
				<port id="1">
					<dim>1</dim>
				</port>
			</input>
			<output>
				<port id="2" precision="FP32">
					<dim>1</dim>
					<dim>1</dim>
					<dim>17920</dim>
					<dim>32</dim>
				</port>
			</output>
		</layer>
		<layer id="69" name="conv1d_4/convolution/ExpandDims/Transpose/Cast_124946_const" type="Const" version="opset1">
			<data element_type="i64" offset="8" shape="4" size="32"/>
			<output>
				<port id="1" precision="I64">
					<dim>4</dim>
				</port>
			</output>
		</layer>
		<layer id="70" name="conv1d_4/convolution/ExpandDims/Transpose" type="Transpose" version="opset1">
			<input>
				<port id="0">
					<dim>1</dim>
					<dim>1</dim>
					<dim>17920</dim>
					<dim>32</dim>
				</port>
				<port id="1">
					<dim>4</dim>
				</port>
			</input>
			<output>
				<port id="2" precision="FP32">
					<dim>1</dim>
					<dim>32</dim>
					<dim>1</dim>
					<dim>17920</dim>
				</port>
			</output>
		</layer>
		<layer id="71" name="conv1d_4/convolution/ExpandDims_1/Output_0/Data__const" type="Const" version="opset1">
			<data element_type="f32" offset="134096" shape="32,32,1,16" size="65536"/>
			<output>
				<port id="1" precision="FP32">
					<dim>32</dim>
					<dim>32</dim>
					<dim>1</dim>
					<dim>16</dim>
				</port>
			</output>
		</layer>
		<layer id="72" name="conv1d_4/convolution/Conv2D" type="Convolution" version="opset1">
			<data auto_pad="same_upper" dilations="1,1" output_padding="0,0" pads_begin="0,7" pads_end="0,7" strides="1,2"/>
			<input>
				<port id="0">
					<dim>1</dim>
					<dim>32</dim>
					<dim>1</dim>
					<dim>17920</dim>
				</port>
				<port id="1">
					<dim>32</dim>
					<dim>32</dim>
					<dim>1</dim>
					<dim>16</dim>
				</port>
			</input>
			<output>
				<port id="2" precision="FP32">
					<dim>1</dim>
					<dim>32</dim>
					<dim>1</dim>
					<dim>8960</dim>
				</port>
			</output>
		</layer>
		<layer id="73" name="conv1d_4/convolution/Conv2D/Transpose/Cast_125030_const" type="Const" version="opset1">
			<data element_type="i64" offset="2088" shape="4" size="32"/>
			<output>
				<port id="1" precision="I64">
					<dim>4</dim>
				</port>
			</output>
		</layer>
		<layer id="74" name="conv1d_4/convolution/Conv2D/Transpose" type="Transpose" version="opset1">
			<input>
				<port id="0">
					<dim>1</dim>
					<dim>32</dim>
					<dim>1</dim>
					<dim>8960</dim>
				</port>
				<port id="1">
					<dim>4</dim>
				</port>
			</input>
			<output>
				<port id="2" precision="FP32">
					<dim>1</dim>
					<dim>1</dim>
					<dim>8960</dim>
					<dim>32</dim>
				</port>
			</output>
		</layer>
		<layer id="75" name="conv1d_4/convolution/Squeeze/Dims/Output_0/Data__const" type="Const" version="opset1">
			<data element_type="i64" offset="0" shape="1" size="8"/>
			<output>
				<port id="1" precision="I64">
					<dim>1</dim>
				</port>
			</output>
		</layer>
		<layer id="76" name="conv1d_4/convolution/Squeeze" type="Squeeze" version="opset1">
			<input>
				<port id="0">
					<dim>1</dim>
					<dim>1</dim>
					<dim>8960</dim>
					<dim>32</dim>
				</port>
				<port id="1">
					<dim>1</dim>
				</port>
			</input>
			<output>
				<port id="2" precision="FP32">
					<dim>1</dim>
					<dim>8960</dim>
					<dim>32</dim>
				</port>
			</output>
		</layer>
		<layer id="77" name="data_mul_1307013074/copy_const" type="Const" version="opset1">
			<data element_type="f32" offset="199632" shape="1,1,32" size="128"/>
			<output>
				<port id="1" precision="FP32">
					<dim>1</dim>
					<dim>1</dim>
					<dim>32</dim>
				</port>
			</output>
		</layer>
		<layer id="78" name="batch_normalization_4/cond/batchnorm/mul_1/Fused_Mul_" type="Multiply" version="opset1">
			<input>
				<port id="0">
					<dim>1</dim>
					<dim>8960</dim>
					<dim>32</dim>
				</port>
				<port id="1">
					<dim>1</dim>
					<dim>1</dim>
					<dim>32</dim>
				</port>
			</input>
			<output>
				<port id="2" precision="FP32">
					<dim>1</dim>
					<dim>8960</dim>
					<dim>32</dim>
				</port>
			</output>
		</layer>
		<layer id="79" name="data_add_1307113076_const" type="Const" version="opset1">
			<data element_type="f32" offset="199760" shape="1,1,32" size="128"/>
			<output>
				<port id="1" precision="FP32">
					<dim>1</dim>
					<dim>1</dim>
					<dim>32</dim>
				</port>
			</output>
		</layer>
		<layer id="80" name="conv1d_4/add/Fused_Add_" type="Add" version="opset1">
			<input>
				<port id="0">
					<dim>1</dim>
					<dim>8960</dim>
					<dim>32</dim>
				</port>
				<port id="1">
					<dim>1</dim>
					<dim>1</dim>
					<dim>32</dim>
				</port>
			</input>
			<output>
				<port id="2" precision="FP32">
					<dim>1</dim>
					<dim>8960</dim>
					<dim>32</dim>
				</port>
			</output>
		</layer>
		<layer id="81" name="activation_4/Relu" type="ReLU" version="opset1">
			<input>
				<port id="0">
					<dim>1</dim>
					<dim>8960</dim>
					<dim>32</dim>
				</port>
			</input>
			<output>
				<port id="1" precision="FP32">
					<dim>1</dim>
					<dim>8960</dim>
					<dim>32</dim>
				</port>
			</output>
		</layer>
		<layer id="82" name="conv1d_5/convolution/ExpandDims/dim/Output_0/Data__const" type="Const" version="opset1">
			<data element_type="i64" offset="0" shape="1" size="8"/>
			<output>
				<port id="1" precision="I64">
					<dim>1</dim>
				</port>
			</output>
		</layer>
		<layer id="83" name="conv1d_5/convolution/ExpandDims" type="Unsqueeze" version="opset1">
			<input>
				<port id="0">
					<dim>1</dim>
					<dim>8960</dim>
					<dim>32</dim>
				</port>
				<port id="1">
					<dim>1</dim>
				</port>
			</input>
			<output>
				<port id="2" precision="FP32">
					<dim>1</dim>
					<dim>1</dim>
					<dim>8960</dim>
					<dim>32</dim>
				</port>
			</output>
		</layer>
		<layer id="84" name="conv1d_5/convolution/ExpandDims/Transpose/Cast_124916_const" type="Const" version="opset1">
			<data element_type="i64" offset="8" shape="4" size="32"/>
			<output>
				<port id="1" precision="I64">
					<dim>4</dim>
				</port>
			</output>
		</layer>
		<layer id="85" name="conv1d_5/convolution/ExpandDims/Transpose" type="Transpose" version="opset1">
			<input>
				<port id="0">
					<dim>1</dim>
					<dim>1</dim>
					<dim>8960</dim>
					<dim>32</dim>
				</port>
				<port id="1">
					<dim>4</dim>
				</port>
			</input>
			<output>
				<port id="2" precision="FP32">
					<dim>1</dim>
					<dim>32</dim>
					<dim>1</dim>
					<dim>8960</dim>
				</port>
			</output>
		</layer>
		<layer id="86" name="conv1d_5/convolution/ExpandDims_1/Output_0/Data__const" type="Const" version="opset1">
			<data element_type="f32" offset="199888" shape="32,32,1,16" size="65536"/>
			<output>
				<port id="1" precision="FP32">
					<dim>32</dim>
					<dim>32</dim>
					<dim>1</dim>
					<dim>16</dim>
				</port>
			</output>
		</layer>
		<layer id="87" name="conv1d_5/convolution/Conv2D" type="Convolution" version="opset1">
			<data auto_pad="same_upper" dilations="1,1" output_padding="0,0" pads_begin="0,7" pads_end="0,8" strides="1,1"/>
			<input>
				<port id="0">
					<dim>1</dim>
					<dim>32</dim>
					<dim>1</dim>
					<dim>8960</dim>
				</port>
				<port id="1">
					<dim>32</dim>
					<dim>32</dim>
					<dim>1</dim>
					<dim>16</dim>
				</port>
			</input>
			<output>
				<port id="2" precision="FP32">
					<dim>1</dim>
					<dim>32</dim>
					<dim>1</dim>
					<dim>8960</dim>
				</port>
			</output>
		</layer>
		<layer id="88" name="conv1d_5/convolution/Conv2D/Transpose/Cast_124928_const" type="Const" version="opset1">
			<data element_type="i64" offset="2088" shape="4" size="32"/>
			<output>
				<port id="1" precision="I64">
					<dim>4</dim>
				</port>
			</output>
		</layer>
		<layer id="89" name="conv1d_5/convolution/Conv2D/Transpose" type="Transpose" version="opset1">
			<input>
				<port id="0">
					<dim>1</dim>
					<dim>32</dim>
					<dim>1</dim>
					<dim>8960</dim>
				</port>
				<port id="1">
					<dim>4</dim>
				</port>
			</input>
			<output>
				<port id="2" precision="FP32">
					<dim>1</dim>
					<dim>1</dim>
					<dim>8960</dim>
					<dim>32</dim>
				</port>
			</output>
		</layer>
		<layer id="90" name="conv1d_5/convolution/Squeeze/Dims/Output_0/Data__const" type="Const" version="opset1">
			<data element_type="i64" offset="0" shape="1" size="8"/>
			<output>
				<port id="1" precision="I64">
					<dim>1</dim>
				</port>
			</output>
		</layer>
		<layer id="91" name="conv1d_5/convolution/Squeeze" type="Squeeze" version="opset1">
			<input>
				<port id="0">
					<dim>1</dim>
					<dim>1</dim>
					<dim>8960</dim>
					<dim>32</dim>
				</port>
				<port id="1">
					<dim>1</dim>
				</port>
			</input>
			<output>
				<port id="2" precision="FP32">
					<dim>1</dim>
					<dim>8960</dim>
					<dim>32</dim>
				</port>
			</output>
		</layer>
		<layer id="92" name="conv1d_5/Reshape/Output_0/Data__const" type="Const" version="opset1">
			<data element_type="f32" offset="265424" shape="1,1,32" size="128"/>
			<output>
				<port id="1" precision="FP32">
					<dim>1</dim>
					<dim>1</dim>
					<dim>32</dim>
				</port>
			</output>
		</layer>
		<layer id="93" name="conv1d_5/add" type="Add" version="opset1">
			<input>
				<port id="0">
					<dim>1</dim>
					<dim>8960</dim>
					<dim>32</dim>
				</port>
				<port id="1">
					<dim>1</dim>
					<dim>1</dim>
					<dim>32</dim>
				</port>
			</input>
			<output>
				<port id="2" precision="FP32">
					<dim>1</dim>
					<dim>8960</dim>
					<dim>32</dim>
				</port>
			</output>
		</layer>
		<layer id="94" name="add_2/add" type="Add" version="opset1">
			<input>
				<port id="0">
					<dim>1</dim>
					<dim>8960</dim>
					<dim>32</dim>
				</port>
				<port id="1">
					<dim>1</dim>
					<dim>8960</dim>
					<dim>32</dim>
				</port>
			</input>
			<output>
				<port id="2" precision="FP32">
					<dim>1</dim>
					<dim>8960</dim>
					<dim>32</dim>
				</port>
			</output>
		</layer>
		<layer id="95" name="max_pooling1d_3/ExpandDims/dim/Output_0/Data__const" type="Const" version="opset1">
			<data element_type="i64" offset="2376" shape="1" size="8"/>
			<output>
				<port id="1" precision="I64">
					<dim>1</dim>
				</port>
			</output>
		</layer>
		<layer id="96" name="max_pooling1d_3/ExpandDims" type="Unsqueeze" version="opset1">
			<input>
				<port id="0">
					<dim>1</dim>
					<dim>8960</dim>
					<dim>32</dim>
				</port>
				<port id="1">
					<dim>1</dim>
				</port>
			</input>
			<output>
				<port id="2" precision="FP32">
					<dim>1</dim>
					<dim>8960</dim>
					<dim>1</dim>
					<dim>32</dim>
				</port>
			</output>
		</layer>
		<layer id="97" name="max_pooling1d_3/ExpandDims/Transpose/Cast_125054_const" type="Const" version="opset1">
			<data element_type="i64" offset="8" shape="4" size="32"/>
			<output>
				<port id="1" precision="I64">
					<dim>4</dim>
				</port>
			</output>
		</layer>
		<layer id="98" name="max_pooling1d_3/ExpandDims/Transpose" type="Transpose" version="opset1">
			<input>
				<port id="0">
					<dim>1</dim>
					<dim>8960</dim>
					<dim>1</dim>
					<dim>32</dim>
				</port>
				<port id="1">
					<dim>4</dim>
				</port>
			</input>
			<output>
				<port id="2" precision="FP32">
					<dim>1</dim>
					<dim>32</dim>
					<dim>8960</dim>
					<dim>1</dim>
				</port>
			</output>
		</layer>
		<layer id="99" name="max_pooling1d_3/MaxPool" type="MaxPool" version="opset1">
			<data auto_pad="valid" kernel="1,1" pads_begin="0,0" pads_end="0,0" strides="1,1"/>
			<input>
				<port id="0">
					<dim>1</dim>
					<dim>32</dim>
					<dim>8960</dim>
					<dim>1</dim>
				</port>
			</input>
			<output>
				<port id="1" precision="FP32">
					<dim>1</dim>
					<dim>32</dim>
					<dim>8960</dim>
					<dim>1</dim>
				</port>
			</output>
		</layer>
		<layer id="100" name="max_pooling1d_3/MaxPool/Transpose/Cast_124936_const" type="Const" version="opset1">
			<data element_type="i64" offset="2088" shape="4" size="32"/>
			<output>
				<port id="1" precision="I64">
					<dim>4</dim>
				</port>
			</output>
		</layer>
		<layer id="101" name="max_pooling1d_3/MaxPool/Transpose" type="Transpose" version="opset1">
			<input>
				<port id="0">
					<dim>1</dim>
					<dim>32</dim>
					<dim>8960</dim>
					<dim>1</dim>
				</port>
				<port id="1">
					<dim>4</dim>
				</port>
			</input>
			<output>
				<port id="2" precision="FP32">
					<dim>1</dim>
					<dim>8960</dim>
					<dim>1</dim>
					<dim>32</dim>
				</port>
			</output>
		</layer>
		<layer id="102" name="max_pooling1d_3/Squeeze/Dims/Output_0/Data__const" type="Const" version="opset1">
			<data element_type="i64" offset="2376" shape="1" size="8"/>
			<output>
				<port id="1" precision="I64">
					<dim>1</dim>
				</port>
			</output>
		</layer>
		<layer id="103" name="max_pooling1d_3/Squeeze" type="Squeeze" version="opset1">
			<input>
				<port id="0">
					<dim>1</dim>
					<dim>8960</dim>
					<dim>1</dim>
					<dim>32</dim>
				</port>
				<port id="1">
					<dim>1</dim>
				</port>
			</input>
			<output>
				<port id="2" precision="FP32">
					<dim>1</dim>
					<dim>8960</dim>
					<dim>32</dim>
				</port>
			</output>
		</layer>
		<layer id="104" name="batch_normalization_5/cond/batchnorm/mul/Output_0/Data_/copy_const" type="Const" version="opset1">
			<data element_type="f32" offset="265552" shape="1,1,32" size="128"/>
			<output>
				<port id="1" precision="FP32">
					<dim>1</dim>
					<dim>1</dim>
					<dim>32</dim>
				</port>
			</output>
		</layer>
		<layer id="105" name="batch_normalization_5/cond/batchnorm/mul_1" type="Multiply" version="opset1">
			<input>
				<port id="0">
					<dim>1</dim>
					<dim>8960</dim>
					<dim>32</dim>
				</port>
				<port id="1">
					<dim>1</dim>
					<dim>1</dim>
					<dim>32</dim>
				</port>
			</input>
			<output>
				<port id="2" precision="FP32">
					<dim>1</dim>
					<dim>8960</dim>
					<dim>32</dim>
				</port>
			</output>
		</layer>
		<layer id="106" name="batch_normalization_5/cond/batchnorm/sub/Output_0/Data_/copy_const" type="Const" version="opset1">
			<data element_type="f32" offset="265680" shape="1,1,32" size="128"/>
			<output>
				<port id="1" precision="FP32">
					<dim>1</dim>
					<dim>1</dim>
					<dim>32</dim>
				</port>
			</output>
		</layer>
		<layer id="107" name="batch_normalization_5/cond/batchnorm/add_1" type="Add" version="opset1">
			<input>
				<port id="0">
					<dim>1</dim>
					<dim>8960</dim>
					<dim>32</dim>
				</port>
				<port id="1">
					<dim>1</dim>
					<dim>1</dim>
					<dim>32</dim>
				</port>
			</input>
			<output>
				<port id="2" precision="FP32">
					<dim>1</dim>
					<dim>8960</dim>
					<dim>32</dim>
				</port>
			</output>
		</layer>
		<layer id="108" name="activation_5/Relu" type="ReLU" version="opset1">
			<input>
				<port id="0">
					<dim>1</dim>
					<dim>8960</dim>
					<dim>32</dim>
				</port>
			</input>
			<output>
				<port id="1" precision="FP32">
					<dim>1</dim>
					<dim>8960</dim>
					<dim>32</dim>
				</port>
			</output>
		</layer>
		<layer id="109" name="conv1d_6/convolution/ExpandDims/dim/Output_0/Data__const" type="Const" version="opset1">
			<data element_type="i64" offset="0" shape="1" size="8"/>
			<output>
				<port id="1" precision="I64">
					<dim>1</dim>
				</port>
			</output>
		</layer>
		<layer id="110" name="conv1d_6/convolution/ExpandDims" type="Unsqueeze" version="opset1">
			<input>
				<port id="0">
					<dim>1</dim>
					<dim>8960</dim>
					<dim>32</dim>
				</port>
				<port id="1">
					<dim>1</dim>
				</port>
			</input>
			<output>
				<port id="2" precision="FP32">
					<dim>1</dim>
					<dim>1</dim>
					<dim>8960</dim>
					<dim>32</dim>
				</port>
			</output>
		</layer>
		<layer id="111" name="conv1d_6/convolution/ExpandDims/Transpose/Cast_124994_const" type="Const" version="opset1">
			<data element_type="i64" offset="8" shape="4" size="32"/>
			<output>
				<port id="1" precision="I64">
					<dim>4</dim>
				</port>
			</output>
		</layer>
		<layer id="112" name="conv1d_6/convolution/ExpandDims/Transpose" type="Transpose" version="opset1">
			<input>
				<port id="0">
					<dim>1</dim>
					<dim>1</dim>
					<dim>8960</dim>
					<dim>32</dim>
				</port>
				<port id="1">
					<dim>4</dim>
				</port>
			</input>
			<output>
				<port id="2" precision="FP32">
					<dim>1</dim>
					<dim>32</dim>
					<dim>1</dim>
					<dim>8960</dim>
				</port>
			</output>
		</layer>
		<layer id="113" name="conv1d_6/convolution/ExpandDims_1/Output_0/Data__const" type="Const" version="opset1">
			<data element_type="f32" offset="265808" shape="32,32,1,16" size="65536"/>
			<output>
				<port id="1" precision="FP32">
					<dim>32</dim>
					<dim>32</dim>
					<dim>1</dim>
					<dim>16</dim>
				</port>
			</output>
		</layer>
		<layer id="114" name="conv1d_6/convolution/Conv2D" type="Convolution" version="opset1">
			<data auto_pad="same_upper" dilations="1,1" output_padding="0,0" pads_begin="0,7" pads_end="0,8" strides="1,1"/>
			<input>
				<port id="0">
					<dim>1</dim>
					<dim>32</dim>
					<dim>1</dim>
					<dim>8960</dim>
				</port>
				<port id="1">
					<dim>32</dim>
					<dim>32</dim>
					<dim>1</dim>
					<dim>16</dim>
				</port>
			</input>
			<output>
				<port id="2" precision="FP32">
					<dim>1</dim>
					<dim>32</dim>
					<dim>1</dim>
					<dim>8960</dim>
				</port>
			</output>
		</layer>
		<layer id="115" name="conv1d_6/convolution/Conv2D/Transpose/Cast_124920_const" type="Const" version="opset1">
			<data element_type="i64" offset="2088" shape="4" size="32"/>
			<output>
				<port id="1" precision="I64">
					<dim>4</dim>
				</port>
			</output>
		</layer>
		<layer id="116" name="conv1d_6/convolution/Conv2D/Transpose" type="Transpose" version="opset1">
			<input>
				<port id="0">
					<dim>1</dim>
					<dim>32</dim>
					<dim>1</dim>
					<dim>8960</dim>
				</port>
				<port id="1">
					<dim>4</dim>
				</port>
			</input>
			<output>
				<port id="2" precision="FP32">
					<dim>1</dim>
					<dim>1</dim>
					<dim>8960</dim>
					<dim>32</dim>
				</port>
			</output>
		</layer>
		<layer id="117" name="conv1d_6/convolution/Squeeze/Dims/Output_0/Data__const" type="Const" version="opset1">
			<data element_type="i64" offset="0" shape="1" size="8"/>
			<output>
				<port id="1" precision="I64">
					<dim>1</dim>
				</port>
			</output>
		</layer>
		<layer id="118" name="conv1d_6/convolution/Squeeze" type="Squeeze" version="opset1">
			<input>
				<port id="0">
					<dim>1</dim>
					<dim>1</dim>
					<dim>8960</dim>
					<dim>32</dim>
				</port>
				<port id="1">
					<dim>1</dim>
				</port>
			</input>
			<output>
				<port id="2" precision="FP32">
					<dim>1</dim>
					<dim>8960</dim>
					<dim>32</dim>
				</port>
			</output>
		</layer>
		<layer id="119" name="data_mul_1307813082/copy_const" type="Const" version="opset1">
			<data element_type="f32" offset="331344" shape="1,1,32" size="128"/>
			<output>
				<port id="1" precision="FP32">
					<dim>1</dim>
					<dim>1</dim>
					<dim>32</dim>
				</port>
			</output>
		</layer>
		<layer id="120" name="batch_normalization_6/cond/batchnorm/mul_1/Fused_Mul_" type="Multiply" version="opset1">
			<input>
				<port id="0">
					<dim>1</dim>
					<dim>8960</dim>
					<dim>32</dim>
				</port>
				<port id="1">
					<dim>1</dim>
					<dim>1</dim>
					<dim>32</dim>
				</port>
			</input>
			<output>
				<port id="2" precision="FP32">
					<dim>1</dim>
					<dim>8960</dim>
					<dim>32</dim>
				</port>
			</output>
		</layer>
		<layer id="121" name="data_add_1307913084_const" type="Const" version="opset1">
			<data element_type="f32" offset="331472" shape="1,1,32" size="128"/>
			<output>
				<port id="1" precision="FP32">
					<dim>1</dim>
					<dim>1</dim>
					<dim>32</dim>
				</port>
			</output>
		</layer>
		<layer id="122" name="conv1d_6/add/Fused_Add_" type="Add" version="opset1">
			<input>
				<port id="0">
					<dim>1</dim>
					<dim>8960</dim>
					<dim>32</dim>
				</port>
				<port id="1">
					<dim>1</dim>
					<dim>1</dim>
					<dim>32</dim>
				</port>
			</input>
			<output>
				<port id="2" precision="FP32">
					<dim>1</dim>
					<dim>8960</dim>
					<dim>32</dim>
				</port>
			</output>
		</layer>
		<layer id="123" name="activation_6/Relu" type="ReLU" version="opset1">
			<input>
				<port id="0">
					<dim>1</dim>
					<dim>8960</dim>
					<dim>32</dim>
				</port>
			</input>
			<output>
				<port id="1" precision="FP32">
					<dim>1</dim>
					<dim>8960</dim>
					<dim>32</dim>
				</port>
			</output>
		</layer>
		<layer id="124" name="conv1d_7/convolution/ExpandDims/dim/Output_0/Data__const" type="Const" version="opset1">
			<data element_type="i64" offset="0" shape="1" size="8"/>
			<output>
				<port id="1" precision="I64">
					<dim>1</dim>
				</port>
			</output>
		</layer>
		<layer id="125" name="conv1d_7/convolution/ExpandDims" type="Unsqueeze" version="opset1">
			<input>
				<port id="0">
					<dim>1</dim>
					<dim>8960</dim>
					<dim>32</dim>
				</port>
				<port id="1">
					<dim>1</dim>
				</port>
			</input>
			<output>
				<port id="2" precision="FP32">
					<dim>1</dim>
					<dim>1</dim>
					<dim>8960</dim>
					<dim>32</dim>
				</port>
			</output>
		</layer>
		<layer id="126" name="conv1d_7/convolution/ExpandDims/Transpose/Cast_124972_const" type="Const" version="opset1">
			<data element_type="i64" offset="8" shape="4" size="32"/>
			<output>
				<port id="1" precision="I64">
					<dim>4</dim>
				</port>
			</output>
		</layer>
		<layer id="127" name="conv1d_7/convolution/ExpandDims/Transpose" type="Transpose" version="opset1">
			<input>
				<port id="0">
					<dim>1</dim>
					<dim>1</dim>
					<dim>8960</dim>
					<dim>32</dim>
				</port>
				<port id="1">
					<dim>4</dim>
				</port>
			</input>
			<output>
				<port id="2" precision="FP32">
					<dim>1</dim>
					<dim>32</dim>
					<dim>1</dim>
					<dim>8960</dim>
				</port>
			</output>
		</layer>
		<layer id="128" name="conv1d_7/convolution/ExpandDims_1/Output_0/Data__const" type="Const" version="opset1">
			<data element_type="f32" offset="331600" shape="32,32,1,16" size="65536"/>
			<output>
				<port id="1" precision="FP32">
					<dim>32</dim>
					<dim>32</dim>
					<dim>1</dim>
					<dim>16</dim>
				</port>
			</output>
		</layer>
		<layer id="129" name="conv1d_7/convolution/Conv2D" type="Convolution" version="opset1">
			<data auto_pad="same_upper" dilations="1,1" output_padding="0,0" pads_begin="0,7" pads_end="0,8" strides="1,1"/>
			<input>
				<port id="0">
					<dim>1</dim>
					<dim>32</dim>
					<dim>1</dim>
					<dim>8960</dim>
				</port>
				<port id="1">
					<dim>32</dim>
					<dim>32</dim>
					<dim>1</dim>
					<dim>16</dim>
				</port>
			</input>
			<output>
				<port id="2" precision="FP32">
					<dim>1</dim>
					<dim>32</dim>
					<dim>1</dim>
					<dim>8960</dim>
				</port>
			</output>
		</layer>
		<layer id="130" name="conv1d_7/convolution/Conv2D/Transpose/Cast_124986_const" type="Const" version="opset1">
			<data element_type="i64" offset="2088" shape="4" size="32"/>
			<output>
				<port id="1" precision="I64">
					<dim>4</dim>
				</port>
			</output>
		</layer>
		<layer id="131" name="conv1d_7/convolution/Conv2D/Transpose" type="Transpose" version="opset1">
			<input>
				<port id="0">
					<dim>1</dim>
					<dim>32</dim>
					<dim>1</dim>
					<dim>8960</dim>
				</port>
				<port id="1">
					<dim>4</dim>
				</port>
			</input>
			<output>
				<port id="2" precision="FP32">
					<dim>1</dim>
					<dim>1</dim>
					<dim>8960</dim>
					<dim>32</dim>
				</port>
			</output>
		</layer>
		<layer id="132" name="conv1d_7/convolution/Squeeze/Dims/Output_0/Data__const" type="Const" version="opset1">
			<data element_type="i64" offset="0" shape="1" size="8"/>
			<output>
				<port id="1" precision="I64">
					<dim>1</dim>
				</port>
			</output>
		</layer>
		<layer id="133" name="conv1d_7/convolution/Squeeze" type="Squeeze" version="opset1">
			<input>
				<port id="0">
					<dim>1</dim>
					<dim>1</dim>
					<dim>8960</dim>
					<dim>32</dim>
				</port>
				<port id="1">
					<dim>1</dim>
				</port>
			</input>
			<output>
				<port id="2" precision="FP32">
					<dim>1</dim>
					<dim>8960</dim>
					<dim>32</dim>
				</port>
			</output>
		</layer>
		<layer id="134" name="conv1d_7/Reshape/Output_0/Data__const" type="Const" version="opset1">
			<data element_type="f32" offset="397136" shape="1,1,32" size="128"/>
			<output>
				<port id="1" precision="FP32">
					<dim>1</dim>
					<dim>1</dim>
					<dim>32</dim>
				</port>
			</output>
		</layer>
		<layer id="135" name="conv1d_7/add" type="Add" version="opset1">
			<input>
				<port id="0">
					<dim>1</dim>
					<dim>8960</dim>
					<dim>32</dim>
				</port>
				<port id="1">
					<dim>1</dim>
					<dim>1</dim>
					<dim>32</dim>
				</port>
			</input>
			<output>
				<port id="2" precision="FP32">
					<dim>1</dim>
					<dim>8960</dim>
					<dim>32</dim>
				</port>
			</output>
		</layer>
		<layer id="136" name="add_3/add" type="Add" version="opset1">
			<input>
				<port id="0">
					<dim>1</dim>
					<dim>8960</dim>
					<dim>32</dim>
				</port>
				<port id="1">
					<dim>1</dim>
					<dim>8960</dim>
					<dim>32</dim>
				</port>
			</input>
			<output>
				<port id="2" precision="FP32">
					<dim>1</dim>
					<dim>8960</dim>
					<dim>32</dim>
				</port>
			</output>
		</layer>
		<layer id="137" name="max_pooling1d_4/ExpandDims/dim/Output_0/Data__const" type="Const" version="opset1">
			<data element_type="i64" offset="2376" shape="1" size="8"/>
			<output>
				<port id="1" precision="I64">
					<dim>1</dim>
				</port>
			</output>
		</layer>
		<layer id="138" name="max_pooling1d_4/ExpandDims" type="Unsqueeze" version="opset1">
			<input>
				<port id="0">
					<dim>1</dim>
					<dim>8960</dim>
					<dim>32</dim>
				</port>
				<port id="1">
					<dim>1</dim>
				</port>
			</input>
			<output>
				<port id="2" precision="FP32">
					<dim>1</dim>
					<dim>8960</dim>
					<dim>1</dim>
					<dim>32</dim>
				</port>
			</output>
		</layer>
		<layer id="139" name="max_pooling1d_4/ExpandDims/Transpose/Cast_124902_const" type="Const" version="opset1">
			<data element_type="i64" offset="8" shape="4" size="32"/>
			<output>
				<port id="1" precision="I64">
					<dim>4</dim>
				</port>
			</output>
		</layer>
		<layer id="140" name="max_pooling1d_4/ExpandDims/Transpose" type="Transpose" version="opset1">
			<input>
				<port id="0">
					<dim>1</dim>
					<dim>8960</dim>
					<dim>1</dim>
					<dim>32</dim>
				</port>
				<port id="1">
					<dim>4</dim>
				</port>
			</input>
			<output>
				<port id="2" precision="FP32">
					<dim>1</dim>
					<dim>32</dim>
					<dim>8960</dim>
					<dim>1</dim>
				</port>
			</output>
		</layer>
		<layer id="141" name="max_pooling1d_4/MaxPool" type="MaxPool" version="opset1">
			<data auto_pad="valid" kernel="2,1" pads_begin="0,0" pads_end="0,0" strides="2,1"/>
			<input>
				<port id="0">
					<dim>1</dim>
					<dim>32</dim>
					<dim>8960</dim>
					<dim>1</dim>
				</port>
			</input>
			<output>
				<port id="1" precision="FP32">
					<dim>1</dim>
					<dim>32</dim>
					<dim>4480</dim>
					<dim>1</dim>
				</port>
			</output>
		</layer>
		<layer id="142" name="max_pooling1d_4/MaxPool/Transpose/Cast_125032_const" type="Const" version="opset1">
			<data element_type="i64" offset="2088" shape="4" size="32"/>
			<output>
				<port id="1" precision="I64">
					<dim>4</dim>
				</port>
			</output>
		</layer>
		<layer id="143" name="max_pooling1d_4/MaxPool/Transpose" type="Transpose" version="opset1">
			<input>
				<port id="0">
					<dim>1</dim>
					<dim>32</dim>
					<dim>4480</dim>
					<dim>1</dim>
				</port>
				<port id="1">
					<dim>4</dim>
				</port>
			</input>
			<output>
				<port id="2" precision="FP32">
					<dim>1</dim>
					<dim>4480</dim>
					<dim>1</dim>
					<dim>32</dim>
				</port>
			</output>
		</layer>
		<layer id="144" name="max_pooling1d_4/Squeeze/Dims/Output_0/Data__const" type="Const" version="opset1">
			<data element_type="i64" offset="2376" shape="1" size="8"/>
			<output>
				<port id="1" precision="I64">
					<dim>1</dim>
				</port>
			</output>
		</layer>
		<layer id="145" name="max_pooling1d_4/Squeeze" type="Squeeze" version="opset1">
			<input>
				<port id="0">
					<dim>1</dim>
					<dim>4480</dim>
					<dim>1</dim>
					<dim>32</dim>
				</port>
				<port id="1">
					<dim>1</dim>
				</port>
			</input>
			<output>
				<port id="2" precision="FP32">
					<dim>1</dim>
					<dim>4480</dim>
					<dim>32</dim>
				</port>
			</output>
		</layer>
		<layer id="146" name="batch_normalization_7/cond/batchnorm/mul/Output_0/Data_/copy_const" type="Const" version="opset1">
			<data element_type="f32" offset="397264" shape="1,1,32" size="128"/>
			<output>
				<port id="1" precision="FP32">
					<dim>1</dim>
					<dim>1</dim>
					<dim>32</dim>
				</port>
			</output>
		</layer>
		<layer id="147" name="batch_normalization_7/cond/batchnorm/mul_1" type="Multiply" version="opset1">
			<input>
				<port id="0">
					<dim>1</dim>
					<dim>8960</dim>
					<dim>32</dim>
				</port>
				<port id="1">
					<dim>1</dim>
					<dim>1</dim>
					<dim>32</dim>
				</port>
			</input>
			<output>
				<port id="2" precision="FP32">
					<dim>1</dim>
					<dim>8960</dim>
					<dim>32</dim>
				</port>
			</output>
		</layer>
		<layer id="148" name="batch_normalization_7/cond/batchnorm/sub/Output_0/Data_/copy_const" type="Const" version="opset1">
			<data element_type="f32" offset="397392" shape="1,1,32" size="128"/>
			<output>
				<port id="1" precision="FP32">
					<dim>1</dim>
					<dim>1</dim>
					<dim>32</dim>
				</port>
			</output>
		</layer>
		<layer id="149" name="batch_normalization_7/cond/batchnorm/add_1" type="Add" version="opset1">
			<input>
				<port id="0">
					<dim>1</dim>
					<dim>8960</dim>
					<dim>32</dim>
				</port>
				<port id="1">
					<dim>1</dim>
					<dim>1</dim>
					<dim>32</dim>
				</port>
			</input>
			<output>
				<port id="2" precision="FP32">
					<dim>1</dim>
					<dim>8960</dim>
					<dim>32</dim>
				</port>
			</output>
		</layer>
		<layer id="150" name="activation_7/Relu" type="ReLU" version="opset1">
			<input>
				<port id="0">
					<dim>1</dim>
					<dim>8960</dim>
					<dim>32</dim>
				</port>
			</input>
			<output>
				<port id="1" precision="FP32">
					<dim>1</dim>
					<dim>8960</dim>
					<dim>32</dim>
				</port>
			</output>
		</layer>
		<layer id="151" name="conv1d_8/convolution/ExpandDims/dim/Output_0/Data__const" type="Const" version="opset1">
			<data element_type="i64" offset="0" shape="1" size="8"/>
			<output>
				<port id="1" precision="I64">
					<dim>1</dim>
				</port>
			</output>
		</layer>
		<layer id="152" name="conv1d_8/convolution/ExpandDims" type="Unsqueeze" version="opset1">
			<input>
				<port id="0">
					<dim>1</dim>
					<dim>8960</dim>
					<dim>32</dim>
				</port>
				<port id="1">
					<dim>1</dim>
				</port>
			</input>
			<output>
				<port id="2" precision="FP32">
					<dim>1</dim>
					<dim>1</dim>
					<dim>8960</dim>
					<dim>32</dim>
				</port>
			</output>
		</layer>
		<layer id="153" name="conv1d_8/convolution/ExpandDims/Transpose/Cast_124924_const" type="Const" version="opset1">
			<data element_type="i64" offset="8" shape="4" size="32"/>
			<output>
				<port id="1" precision="I64">
					<dim>4</dim>
				</port>
			</output>
		</layer>
		<layer id="154" name="conv1d_8/convolution/ExpandDims/Transpose" type="Transpose" version="opset1">
			<input>
				<port id="0">
					<dim>1</dim>
					<dim>1</dim>
					<dim>8960</dim>
					<dim>32</dim>
				</port>
				<port id="1">
					<dim>4</dim>
				</port>
			</input>
			<output>
				<port id="2" precision="FP32">
					<dim>1</dim>
					<dim>32</dim>
					<dim>1</dim>
					<dim>8960</dim>
				</port>
			</output>
		</layer>
		<layer id="155" name="conv1d_8/convolution/ExpandDims_1/Output_0/Data__const" type="Const" version="opset1">
			<data element_type="f32" offset="397520" shape="32,32,1,16" size="65536"/>
			<output>
				<port id="1" precision="FP32">
					<dim>32</dim>
					<dim>32</dim>
					<dim>1</dim>
					<dim>16</dim>
				</port>
			</output>
		</layer>
		<layer id="156" name="conv1d_8/convolution/Conv2D" type="Convolution" version="opset1">
			<data auto_pad="same_upper" dilations="1,1" output_padding="0,0" pads_begin="0,7" pads_end="0,7" strides="1,2"/>
			<input>
				<port id="0">
					<dim>1</dim>
					<dim>32</dim>
					<dim>1</dim>
					<dim>8960</dim>
				</port>
				<port id="1">
					<dim>32</dim>
					<dim>32</dim>
					<dim>1</dim>
					<dim>16</dim>
				</port>
			</input>
			<output>
				<port id="2" precision="FP32">
					<dim>1</dim>
					<dim>32</dim>
					<dim>1</dim>
					<dim>4480</dim>
				</port>
			</output>
		</layer>
		<layer id="157" name="conv1d_8/convolution/Conv2D/Transpose/Cast_125048_const" type="Const" version="opset1">
			<data element_type="i64" offset="2088" shape="4" size="32"/>
			<output>
				<port id="1" precision="I64">
					<dim>4</dim>
				</port>
			</output>
		</layer>
		<layer id="158" name="conv1d_8/convolution/Conv2D/Transpose" type="Transpose" version="opset1">
			<input>
				<port id="0">
					<dim>1</dim>
					<dim>32</dim>
					<dim>1</dim>
					<dim>4480</dim>
				</port>
				<port id="1">
					<dim>4</dim>
				</port>
			</input>
			<output>
				<port id="2" precision="FP32">
					<dim>1</dim>
					<dim>1</dim>
					<dim>4480</dim>
					<dim>32</dim>
				</port>
			</output>
		</layer>
		<layer id="159" name="conv1d_8/convolution/Squeeze/Dims/Output_0/Data__const" type="Const" version="opset1">
			<data element_type="i64" offset="0" shape="1" size="8"/>
			<output>
				<port id="1" precision="I64">
					<dim>1</dim>
				</port>
			</output>
		</layer>
		<layer id="160" name="conv1d_8/convolution/Squeeze" type="Squeeze" version="opset1">
			<input>
				<port id="0">
					<dim>1</dim>
					<dim>1</dim>
					<dim>4480</dim>
					<dim>32</dim>
				</port>
				<port id="1">
					<dim>1</dim>
				</port>
			</input>
			<output>
				<port id="2" precision="FP32">
					<dim>1</dim>
					<dim>4480</dim>
					<dim>32</dim>
				</port>
			</output>
		</layer>
		<layer id="161" name="data_mul_1308613090/copy_const" type="Const" version="opset1">
			<data element_type="f32" offset="463056" shape="1,1,32" size="128"/>
			<output>
				<port id="1" precision="FP32">
					<dim>1</dim>
					<dim>1</dim>
					<dim>32</dim>
				</port>
			</output>
		</layer>
		<layer id="162" name="batch_normalization_8/cond/batchnorm/mul_1/Fused_Mul_" type="Multiply" version="opset1">
			<input>
				<port id="0">
					<dim>1</dim>
					<dim>4480</dim>
					<dim>32</dim>
				</port>
				<port id="1">
					<dim>1</dim>
					<dim>1</dim>
					<dim>32</dim>
				</port>
			</input>
			<output>
				<port id="2" precision="FP32">
					<dim>1</dim>
					<dim>4480</dim>
					<dim>32</dim>
				</port>
			</output>
		</layer>
		<layer id="163" name="data_add_1308713092_const" type="Const" version="opset1">
			<data element_type="f32" offset="463184" shape="1,1,32" size="128"/>
			<output>
				<port id="1" precision="FP32">
					<dim>1</dim>
					<dim>1</dim>
					<dim>32</dim>
				</port>
			</output>
		</layer>
		<layer id="164" name="conv1d_8/add/Fused_Add_" type="Add" version="opset1">
			<input>
				<port id="0">
					<dim>1</dim>
					<dim>4480</dim>
					<dim>32</dim>
				</port>
				<port id="1">
					<dim>1</dim>
					<dim>1</dim>
					<dim>32</dim>
				</port>
			</input>
			<output>
				<port id="2" precision="FP32">
					<dim>1</dim>
					<dim>4480</dim>
					<dim>32</dim>
				</port>
			</output>
		</layer>
		<layer id="165" name="activation_8/Relu" type="ReLU" version="opset1">
			<input>
				<port id="0">
					<dim>1</dim>
					<dim>4480</dim>
					<dim>32</dim>
				</port>
			</input>
			<output>
				<port id="1" precision="FP32">
					<dim>1</dim>
					<dim>4480</dim>
					<dim>32</dim>
				</port>
			</output>
		</layer>
		<layer id="166" name="conv1d_9/convolution/ExpandDims/dim/Output_0/Data__const" type="Const" version="opset1">
			<data element_type="i64" offset="0" shape="1" size="8"/>
			<output>
				<port id="1" precision="I64">
					<dim>1</dim>
				</port>
			</output>
		</layer>
		<layer id="167" name="conv1d_9/convolution/ExpandDims" type="Unsqueeze" version="opset1">
			<input>
				<port id="0">
					<dim>1</dim>
					<dim>4480</dim>
					<dim>32</dim>
				</port>
				<port id="1">
					<dim>1</dim>
				</port>
			</input>
			<output>
				<port id="2" precision="FP32">
					<dim>1</dim>
					<dim>1</dim>
					<dim>4480</dim>
					<dim>32</dim>
				</port>
			</output>
		</layer>
		<layer id="168" name="conv1d_9/convolution/ExpandDims/Transpose/Cast_124892_const" type="Const" version="opset1">
			<data element_type="i64" offset="8" shape="4" size="32"/>
			<output>
				<port id="1" precision="I64">
					<dim>4</dim>
				</port>
			</output>
		</layer>
		<layer id="169" name="conv1d_9/convolution/ExpandDims/Transpose" type="Transpose" version="opset1">
			<input>
				<port id="0">
					<dim>1</dim>
					<dim>1</dim>
					<dim>4480</dim>
					<dim>32</dim>
				</port>
				<port id="1">
					<dim>4</dim>
				</port>
			</input>
			<output>
				<port id="2" precision="FP32">
					<dim>1</dim>
					<dim>32</dim>
					<dim>1</dim>
					<dim>4480</dim>
				</port>
			</output>
		</layer>
		<layer id="170" name="conv1d_9/convolution/ExpandDims_1/Output_0/Data__const" type="Const" version="opset1">
			<data element_type="f32" offset="463312" shape="32,32,1,16" size="65536"/>
			<output>
				<port id="1" precision="FP32">
					<dim>32</dim>
					<dim>32</dim>
					<dim>1</dim>
					<dim>16</dim>
				</port>
			</output>
		</layer>
		<layer id="171" name="conv1d_9/convolution/Conv2D" type="Convolution" version="opset1">
			<data auto_pad="same_upper" dilations="1,1" output_padding="0,0" pads_begin="0,7" pads_end="0,8" strides="1,1"/>
			<input>
				<port id="0">
					<dim>1</dim>
					<dim>32</dim>
					<dim>1</dim>
					<dim>4480</dim>
				</port>
				<port id="1">
					<dim>32</dim>
					<dim>32</dim>
					<dim>1</dim>
					<dim>16</dim>
				</port>
			</input>
			<output>
				<port id="2" precision="FP32">
					<dim>1</dim>
					<dim>32</dim>
					<dim>1</dim>
					<dim>4480</dim>
				</port>
			</output>
		</layer>
		<layer id="172" name="conv1d_9/convolution/Conv2D/Transpose/Cast_124978_const" type="Const" version="opset1">
			<data element_type="i64" offset="2088" shape="4" size="32"/>
			<output>
				<port id="1" precision="I64">
					<dim>4</dim>
				</port>
			</output>
		</layer>
		<layer id="173" name="conv1d_9/convolution/Conv2D/Transpose" type="Transpose" version="opset1">
			<input>
				<port id="0">
					<dim>1</dim>
					<dim>32</dim>
					<dim>1</dim>
					<dim>4480</dim>
				</port>
				<port id="1">
					<dim>4</dim>
				</port>
			</input>
			<output>
				<port id="2" precision="FP32">
					<dim>1</dim>
					<dim>1</dim>
					<dim>4480</dim>
					<dim>32</dim>
				</port>
			</output>
		</layer>
		<layer id="174" name="conv1d_9/convolution/Squeeze/Dims/Output_0/Data__const" type="Const" version="opset1">
			<data element_type="i64" offset="0" shape="1" size="8"/>
			<output>
				<port id="1" precision="I64">
					<dim>1</dim>
				</port>
			</output>
		</layer>
		<layer id="175" name="conv1d_9/convolution/Squeeze" type="Squeeze" version="opset1">
			<input>
				<port id="0">
					<dim>1</dim>
					<dim>1</dim>
					<dim>4480</dim>
					<dim>32</dim>
				</port>
				<port id="1">
					<dim>1</dim>
				</port>
			</input>
			<output>
				<port id="2" precision="FP32">
					<dim>1</dim>
					<dim>4480</dim>
					<dim>32</dim>
				</port>
			</output>
		</layer>
		<layer id="176" name="conv1d_9/Reshape/Output_0/Data__const" type="Const" version="opset1">
			<data element_type="f32" offset="528848" shape="1,1,32" size="128"/>
			<output>
				<port id="1" precision="FP32">
					<dim>1</dim>
					<dim>1</dim>
					<dim>32</dim>
				</port>
			</output>
		</layer>
		<layer id="177" name="conv1d_9/add" type="Add" version="opset1">
			<input>
				<port id="0">
					<dim>1</dim>
					<dim>4480</dim>
					<dim>32</dim>
				</port>
				<port id="1">
					<dim>1</dim>
					<dim>1</dim>
					<dim>32</dim>
				</port>
			</input>
			<output>
				<port id="2" precision="FP32">
					<dim>1</dim>
					<dim>4480</dim>
					<dim>32</dim>
				</port>
			</output>
		</layer>
		<layer id="178" name="add_4/add" type="Add" version="opset1">
			<input>
				<port id="0">
					<dim>1</dim>
					<dim>4480</dim>
					<dim>32</dim>
				</port>
				<port id="1">
					<dim>1</dim>
					<dim>4480</dim>
					<dim>32</dim>
				</port>
			</input>
			<output>
				<port id="2" precision="FP32">
					<dim>1</dim>
					<dim>4480</dim>
					<dim>32</dim>
				</port>
			</output>
		</layer>
		<layer id="179" name="max_pooling1d_5/ExpandDims/dim/Output_0/Data__const" type="Const" version="opset1">
			<data element_type="i64" offset="2376" shape="1" size="8"/>
			<output>
				<port id="1" precision="I64">
					<dim>1</dim>
				</port>
			</output>
		</layer>
		<layer id="180" name="max_pooling1d_5/ExpandDims" type="Unsqueeze" version="opset1">
			<input>
				<port id="0">
					<dim>1</dim>
					<dim>4480</dim>
					<dim>32</dim>
				</port>
				<port id="1">
					<dim>1</dim>
				</port>
			</input>
			<output>
				<port id="2" precision="FP32">
					<dim>1</dim>
					<dim>4480</dim>
					<dim>1</dim>
					<dim>32</dim>
				</port>
			</output>
		</layer>
		<layer id="181" name="max_pooling1d_5/ExpandDims/Transpose/Cast_124938_const" type="Const" version="opset1">
			<data element_type="i64" offset="8" shape="4" size="32"/>
			<output>
				<port id="1" precision="I64">
					<dim>4</dim>
				</port>
			</output>
		</layer>
		<layer id="182" name="max_pooling1d_5/ExpandDims/Transpose" type="Transpose" version="opset1">
			<input>
				<port id="0">
					<dim>1</dim>
					<dim>4480</dim>
					<dim>1</dim>
					<dim>32</dim>
				</port>
				<port id="1">
					<dim>4</dim>
				</port>
			</input>
			<output>
				<port id="2" precision="FP32">
					<dim>1</dim>
					<dim>32</dim>
					<dim>4480</dim>
					<dim>1</dim>
				</port>
			</output>
		</layer>
		<layer id="183" name="max_pooling1d_5/MaxPool" type="MaxPool" version="opset1">
			<data auto_pad="valid" kernel="1,1" pads_begin="0,0" pads_end="0,0" strides="1,1"/>
			<input>
				<port id="0">
					<dim>1</dim>
					<dim>32</dim>
					<dim>4480</dim>
					<dim>1</dim>
				</port>
			</input>
			<output>
				<port id="1" precision="FP32">
					<dim>1</dim>
					<dim>32</dim>
					<dim>4480</dim>
					<dim>1</dim>
				</port>
			</output>
		</layer>
		<layer id="184" name="max_pooling1d_5/MaxPool/Transpose/Cast_125006_const" type="Const" version="opset1">
			<data element_type="i64" offset="2088" shape="4" size="32"/>
			<output>
				<port id="1" precision="I64">
					<dim>4</dim>
				</port>
			</output>
		</layer>
		<layer id="185" name="max_pooling1d_5/MaxPool/Transpose" type="Transpose" version="opset1">
			<input>
				<port id="0">
					<dim>1</dim>
					<dim>32</dim>
					<dim>4480</dim>
					<dim>1</dim>
				</port>
				<port id="1">
					<dim>4</dim>
				</port>
			</input>
			<output>
				<port id="2" precision="FP32">
					<dim>1</dim>
					<dim>4480</dim>
					<dim>1</dim>
					<dim>32</dim>
				</port>
			</output>
		</layer>
		<layer id="186" name="max_pooling1d_5/Squeeze/Dims/Output_0/Data__const" type="Const" version="opset1">
			<data element_type="i64" offset="2376" shape="1" size="8"/>
			<output>
				<port id="1" precision="I64">
					<dim>1</dim>
				</port>
			</output>
		</layer>
		<layer id="187" name="max_pooling1d_5/Squeeze" type="Squeeze" version="opset1">
			<input>
				<port id="0">
					<dim>1</dim>
					<dim>4480</dim>
					<dim>1</dim>
					<dim>32</dim>
				</port>
				<port id="1">
					<dim>1</dim>
				</port>
			</input>
			<output>
				<port id="2" precision="FP32">
					<dim>1</dim>
					<dim>4480</dim>
					<dim>32</dim>
				</port>
			</output>
		</layer>
		<layer id="188" name="2604/Output_0/Data_/copy_const" type="Const" version="opset1">
			<data element_type="f32" offset="528976" shape="1,1,1" size="4"/>
			<output>
				<port id="1" precision="FP32">
					<dim>1</dim>
					<dim>1</dim>
					<dim>1</dim>
				</port>
			</output>
		</layer>
		<layer id="189" name="lambda_1/zeros_like/mul_" type="Multiply" version="opset1">
			<input>
				<port id="0">
					<dim>1</dim>
					<dim>4480</dim>
					<dim>32</dim>
				</port>
				<port id="1">
					<dim>1</dim>
					<dim>1</dim>
					<dim>1</dim>
				</port>
			</input>
			<output>
				<port id="2" precision="FP32">
					<dim>1</dim>
					<dim>4480</dim>
					<dim>32</dim>
				</port>
			</output>
		</layer>
		<layer id="190" name="lambda_1/concat" type="Concat" version="opset1">
			<data axis="2"/>
			<input>
				<port id="0">
					<dim>1</dim>
					<dim>4480</dim>
					<dim>32</dim>
				</port>
				<port id="1">
					<dim>1</dim>
					<dim>4480</dim>
					<dim>32</dim>
				</port>
			</input>
			<output>
				<port id="2" precision="FP32">
					<dim>1</dim>
					<dim>4480</dim>
					<dim>64</dim>
				</port>
			</output>
		</layer>
		<layer id="191" name="batch_normalization_9/cond/batchnorm/mul/Output_0/Data_/copy_const" type="Const" version="opset1">
			<data element_type="f32" offset="528980" shape="1,1,32" size="128"/>
			<output>
				<port id="1" precision="FP32">
					<dim>1</dim>
					<dim>1</dim>
					<dim>32</dim>
				</port>
			</output>
		</layer>
		<layer id="192" name="batch_normalization_9/cond/batchnorm/mul_1" type="Multiply" version="opset1">
			<input>
				<port id="0">
					<dim>1</dim>
					<dim>4480</dim>
					<dim>32</dim>
				</port>
				<port id="1">
					<dim>1</dim>
					<dim>1</dim>
					<dim>32</dim>
				</port>
			</input>
			<output>
				<port id="2" precision="FP32">
					<dim>1</dim>
					<dim>4480</dim>
					<dim>32</dim>
				</port>
			</output>
		</layer>
		<layer id="193" name="batch_normalization_9/cond/batchnorm/sub/Output_0/Data_/copy_const" type="Const" version="opset1">
			<data element_type="f32" offset="529108" shape="1,1,32" size="128"/>
			<output>
				<port id="1" precision="FP32">
					<dim>1</dim>
					<dim>1</dim>
					<dim>32</dim>
				</port>
			</output>
		</layer>
		<layer id="194" name="batch_normalization_9/cond/batchnorm/add_1" type="Add" version="opset1">
			<input>
				<port id="0">
					<dim>1</dim>
					<dim>4480</dim>
					<dim>32</dim>
				</port>
				<port id="1">
					<dim>1</dim>
					<dim>1</dim>
					<dim>32</dim>
				</port>
			</input>
			<output>
				<port id="2" precision="FP32">
					<dim>1</dim>
					<dim>4480</dim>
					<dim>32</dim>
				</port>
			</output>
		</layer>
		<layer id="195" name="activation_9/Relu" type="ReLU" version="opset1">
			<input>
				<port id="0">
					<dim>1</dim>
					<dim>4480</dim>
					<dim>32</dim>
				</port>
			</input>
			<output>
				<port id="1" precision="FP32">
					<dim>1</dim>
					<dim>4480</dim>
					<dim>32</dim>
				</port>
			</output>
		</layer>
		<layer id="196" name="conv1d_10/convolution/ExpandDims/dim/Output_0/Data__const" type="Const" version="opset1">
			<data element_type="i64" offset="0" shape="1" size="8"/>
			<output>
				<port id="1" precision="I64">
					<dim>1</dim>
				</port>
			</output>
		</layer>
		<layer id="197" name="conv1d_10/convolution/ExpandDims" type="Unsqueeze" version="opset1">
			<input>
				<port id="0">
					<dim>1</dim>
					<dim>4480</dim>
					<dim>32</dim>
				</port>
				<port id="1">
					<dim>1</dim>
				</port>
			</input>
			<output>
				<port id="2" precision="FP32">
					<dim>1</dim>
					<dim>1</dim>
					<dim>4480</dim>
					<dim>32</dim>
				</port>
			</output>
		</layer>
		<layer id="198" name="conv1d_10/convolution/ExpandDims/Transpose/Cast_125072_const" type="Const" version="opset1">
			<data element_type="i64" offset="8" shape="4" size="32"/>
			<output>
				<port id="1" precision="I64">
					<dim>4</dim>
				</port>
			</output>
		</layer>
		<layer id="199" name="conv1d_10/convolution/ExpandDims/Transpose" type="Transpose" version="opset1">
			<input>
				<port id="0">
					<dim>1</dim>
					<dim>1</dim>
					<dim>4480</dim>
					<dim>32</dim>
				</port>
				<port id="1">
					<dim>4</dim>
				</port>
			</input>
			<output>
				<port id="2" precision="FP32">
					<dim>1</dim>
					<dim>32</dim>
					<dim>1</dim>
					<dim>4480</dim>
				</port>
			</output>
		</layer>
		<layer id="200" name="conv1d_10/convolution/ExpandDims_1/Output_0/Data__const" type="Const" version="opset1">
			<data element_type="f32" offset="529236" shape="64,32,1,16" size="131072"/>
			<output>
				<port id="1" precision="FP32">
					<dim>64</dim>
					<dim>32</dim>
					<dim>1</dim>
					<dim>16</dim>
				</port>
			</output>
		</layer>
		<layer id="201" name="conv1d_10/convolution/Conv2D" type="Convolution" version="opset1">
			<data auto_pad="same_upper" dilations="1,1" output_padding="0,0" pads_begin="0,7" pads_end="0,8" strides="1,1"/>
			<input>
				<port id="0">
					<dim>1</dim>
					<dim>32</dim>
					<dim>1</dim>
					<dim>4480</dim>
				</port>
				<port id="1">
					<dim>64</dim>
					<dim>32</dim>
					<dim>1</dim>
					<dim>16</dim>
				</port>
			</input>
			<output>
				<port id="2" precision="FP32">
					<dim>1</dim>
					<dim>64</dim>
					<dim>1</dim>
					<dim>4480</dim>
				</port>
			</output>
		</layer>
		<layer id="202" name="conv1d_10/convolution/Conv2D/Transpose/Cast_124984_const" type="Const" version="opset1">
			<data element_type="i64" offset="2088" shape="4" size="32"/>
			<output>
				<port id="1" precision="I64">
					<dim>4</dim>
				</port>
			</output>
		</layer>
		<layer id="203" name="conv1d_10/convolution/Conv2D/Transpose" type="Transpose" version="opset1">
			<input>
				<port id="0">
					<dim>1</dim>
					<dim>64</dim>
					<dim>1</dim>
					<dim>4480</dim>
				</port>
				<port id="1">
					<dim>4</dim>
				</port>
			</input>
			<output>
				<port id="2" precision="FP32">
					<dim>1</dim>
					<dim>1</dim>
					<dim>4480</dim>
					<dim>64</dim>
				</port>
			</output>
		</layer>
		<layer id="204" name="conv1d_10/convolution/Squeeze/Dims/Output_0/Data__const" type="Const" version="opset1">
			<data element_type="i64" offset="0" shape="1" size="8"/>
			<output>
				<port id="1" precision="I64">
					<dim>1</dim>
				</port>
			</output>
		</layer>
		<layer id="205" name="conv1d_10/convolution/Squeeze" type="Squeeze" version="opset1">
			<input>
				<port id="0">
					<dim>1</dim>
					<dim>1</dim>
					<dim>4480</dim>
					<dim>64</dim>
				</port>
				<port id="1">
					<dim>1</dim>
				</port>
			</input>
			<output>
				<port id="2" precision="FP32">
					<dim>1</dim>
					<dim>4480</dim>
					<dim>64</dim>
				</port>
			</output>
		</layer>
		<layer id="206" name="data_mul_1309413098/copy_const" type="Const" version="opset1">
			<data element_type="f32" offset="660308" shape="1,1,64" size="256"/>
			<output>
				<port id="1" precision="FP32">
					<dim>1</dim>
					<dim>1</dim>
					<dim>64</dim>
				</port>
			</output>
		</layer>
		<layer id="207" name="batch_normalization_10/cond/batchnorm/mul_1/Fused_Mul_" type="Multiply" version="opset1">
			<input>
				<port id="0">
					<dim>1</dim>
					<dim>4480</dim>
					<dim>64</dim>
				</port>
				<port id="1">
					<dim>1</dim>
					<dim>1</dim>
					<dim>64</dim>
				</port>
			</input>
			<output>
				<port id="2" precision="FP32">
					<dim>1</dim>
					<dim>4480</dim>
					<dim>64</dim>
				</port>
			</output>
		</layer>
		<layer id="208" name="data_add_1309513100_const" type="Const" version="opset1">
			<data element_type="f32" offset="660564" shape="1,1,64" size="256"/>
			<output>
				<port id="1" precision="FP32">
					<dim>1</dim>
					<dim>1</dim>
					<dim>64</dim>
				</port>
			</output>
		</layer>
		<layer id="209" name="conv1d_10/add/Fused_Add_" type="Add" version="opset1">
			<input>
				<port id="0">
					<dim>1</dim>
					<dim>4480</dim>
					<dim>64</dim>
				</port>
				<port id="1">
					<dim>1</dim>
					<dim>1</dim>
					<dim>64</dim>
				</port>
			</input>
			<output>
				<port id="2" precision="FP32">
					<dim>1</dim>
					<dim>4480</dim>
					<dim>64</dim>
				</port>
			</output>
		</layer>
		<layer id="210" name="activation_10/Relu" type="ReLU" version="opset1">
			<input>
				<port id="0">
					<dim>1</dim>
					<dim>4480</dim>
					<dim>64</dim>
				</port>
			</input>
			<output>
				<port id="1" precision="FP32">
					<dim>1</dim>
					<dim>4480</dim>
					<dim>64</dim>
				</port>
			</output>
		</layer>
		<layer id="211" name="conv1d_11/convolution/ExpandDims/dim/Output_0/Data__const" type="Const" version="opset1">
			<data element_type="i64" offset="0" shape="1" size="8"/>
			<output>
				<port id="1" precision="I64">
					<dim>1</dim>
				</port>
			</output>
		</layer>
		<layer id="212" name="conv1d_11/convolution/ExpandDims" type="Unsqueeze" version="opset1">
			<input>
				<port id="0">
					<dim>1</dim>
					<dim>4480</dim>
					<dim>64</dim>
				</port>
				<port id="1">
					<dim>1</dim>
				</port>
			</input>
			<output>
				<port id="2" precision="FP32">
					<dim>1</dim>
					<dim>1</dim>
					<dim>4480</dim>
					<dim>64</dim>
				</port>
			</output>
		</layer>
		<layer id="213" name="conv1d_11/convolution/ExpandDims/Transpose/Cast_125084_const" type="Const" version="opset1">
			<data element_type="i64" offset="8" shape="4" size="32"/>
			<output>
				<port id="1" precision="I64">
					<dim>4</dim>
				</port>
			</output>
		</layer>
		<layer id="214" name="conv1d_11/convolution/ExpandDims/Transpose" type="Transpose" version="opset1">
			<input>
				<port id="0">
					<dim>1</dim>
					<dim>1</dim>
					<dim>4480</dim>
					<dim>64</dim>
				</port>
				<port id="1">
					<dim>4</dim>
				</port>
			</input>
			<output>
				<port id="2" precision="FP32">
					<dim>1</dim>
					<dim>64</dim>
					<dim>1</dim>
					<dim>4480</dim>
				</port>
			</output>
		</layer>
		<layer id="215" name="conv1d_11/convolution/ExpandDims_1/Output_0/Data__const" type="Const" version="opset1">
			<data element_type="f32" offset="660820" shape="64,64,1,16" size="262144"/>
			<output>
				<port id="1" precision="FP32">
					<dim>64</dim>
					<dim>64</dim>
					<dim>1</dim>
					<dim>16</dim>
				</port>
			</output>
		</layer>
		<layer id="216" name="conv1d_11/convolution/Conv2D" type="Convolution" version="opset1">
			<data auto_pad="same_upper" dilations="1,1" output_padding="0,0" pads_begin="0,7" pads_end="0,8" strides="1,1"/>
			<input>
				<port id="0">
					<dim>1</dim>
					<dim>64</dim>
					<dim>1</dim>
					<dim>4480</dim>
				</port>
				<port id="1">
					<dim>64</dim>
					<dim>64</dim>
					<dim>1</dim>
					<dim>16</dim>
				</port>
			</input>
			<output>
				<port id="2" precision="FP32">
					<dim>1</dim>
					<dim>64</dim>
					<dim>1</dim>
					<dim>4480</dim>
				</port>
			</output>
		</layer>
		<layer id="217" name="conv1d_11/convolution/Conv2D/Transpose/Cast_125034_const" type="Const" version="opset1">
			<data element_type="i64" offset="2088" shape="4" size="32"/>
			<output>
				<port id="1" precision="I64">
					<dim>4</dim>
				</port>
			</output>
		</layer>
		<layer id="218" name="conv1d_11/convolution/Conv2D/Transpose" type="Transpose" version="opset1">
			<input>
				<port id="0">
					<dim>1</dim>
					<dim>64</dim>
					<dim>1</dim>
					<dim>4480</dim>
				</port>
				<port id="1">
					<dim>4</dim>
				</port>
			</input>
			<output>
				<port id="2" precision="FP32">
					<dim>1</dim>
					<dim>1</dim>
					<dim>4480</dim>
					<dim>64</dim>
				</port>
			</output>
		</layer>
		<layer id="219" name="conv1d_11/convolution/Squeeze/Dims/Output_0/Data__const" type="Const" version="opset1">
			<data element_type="i64" offset="0" shape="1" size="8"/>
			<output>
				<port id="1" precision="I64">
					<dim>1</dim>
				</port>
			</output>
		</layer>
		<layer id="220" name="conv1d_11/convolution/Squeeze" type="Squeeze" version="opset1">
			<input>
				<port id="0">
					<dim>1</dim>
					<dim>1</dim>
					<dim>4480</dim>
					<dim>64</dim>
				</port>
				<port id="1">
					<dim>1</dim>
				</port>
			</input>
			<output>
				<port id="2" precision="FP32">
					<dim>1</dim>
					<dim>4480</dim>
					<dim>64</dim>
				</port>
			</output>
		</layer>
		<layer id="221" name="conv1d_11/Reshape/Output_0/Data__const" type="Const" version="opset1">
			<data element_type="f32" offset="922964" shape="1,1,64" size="256"/>
			<output>
				<port id="1" precision="FP32">
					<dim>1</dim>
					<dim>1</dim>
					<dim>64</dim>
				</port>
			</output>
		</layer>
		<layer id="222" name="conv1d_11/add" type="Add" version="opset1">
			<input>
				<port id="0">
					<dim>1</dim>
					<dim>4480</dim>
					<dim>64</dim>
				</port>
				<port id="1">
					<dim>1</dim>
					<dim>1</dim>
					<dim>64</dim>
				</port>
			</input>
			<output>
				<port id="2" precision="FP32">
					<dim>1</dim>
					<dim>4480</dim>
					<dim>64</dim>
				</port>
			</output>
		</layer>
		<layer id="223" name="add_5/add" type="Add" version="opset1">
			<input>
				<port id="0">
					<dim>1</dim>
					<dim>4480</dim>
					<dim>64</dim>
				</port>
				<port id="1">
					<dim>1</dim>
					<dim>4480</dim>
					<dim>64</dim>
				</port>
			</input>
			<output>
				<port id="2" precision="FP32">
					<dim>1</dim>
					<dim>4480</dim>
					<dim>64</dim>
				</port>
			</output>
		</layer>
		<layer id="224" name="max_pooling1d_6/ExpandDims/dim/Output_0/Data__const" type="Const" version="opset1">
			<data element_type="i64" offset="2376" shape="1" size="8"/>
			<output>
				<port id="1" precision="I64">
					<dim>1</dim>
				</port>
			</output>
		</layer>
		<layer id="225" name="max_pooling1d_6/ExpandDims" type="Unsqueeze" version="opset1">
			<input>
				<port id="0">
					<dim>1</dim>
					<dim>4480</dim>
					<dim>64</dim>
				</port>
				<port id="1">
					<dim>1</dim>
				</port>
			</input>
			<output>
				<port id="2" precision="FP32">
					<dim>1</dim>
					<dim>4480</dim>
					<dim>1</dim>
					<dim>64</dim>
				</port>
			</output>
		</layer>
		<layer id="226" name="max_pooling1d_6/ExpandDims/Transpose/Cast_125080_const" type="Const" version="opset1">
			<data element_type="i64" offset="8" shape="4" size="32"/>
			<output>
				<port id="1" precision="I64">
					<dim>4</dim>
				</port>
			</output>
		</layer>
		<layer id="227" name="max_pooling1d_6/ExpandDims/Transpose" type="Transpose" version="opset1">
			<input>
				<port id="0">
					<dim>1</dim>
					<dim>4480</dim>
					<dim>1</dim>
					<dim>64</dim>
				</port>
				<port id="1">
					<dim>4</dim>
				</port>
			</input>
			<output>
				<port id="2" precision="FP32">
					<dim>1</dim>
					<dim>64</dim>
					<dim>4480</dim>
					<dim>1</dim>
				</port>
			</output>
		</layer>
		<layer id="228" name="max_pooling1d_6/MaxPool" type="MaxPool" version="opset1">
			<data auto_pad="valid" kernel="2,1" pads_begin="0,0" pads_end="0,0" strides="2,1"/>
			<input>
				<port id="0">
					<dim>1</dim>
					<dim>64</dim>
					<dim>4480</dim>
					<dim>1</dim>
				</port>
			</input>
			<output>
				<port id="1" precision="FP32">
					<dim>1</dim>
					<dim>64</dim>
					<dim>2240</dim>
					<dim>1</dim>
				</port>
			</output>
		</layer>
		<layer id="229" name="max_pooling1d_6/MaxPool/Transpose/Cast_125002_const" type="Const" version="opset1">
			<data element_type="i64" offset="2088" shape="4" size="32"/>
			<output>
				<port id="1" precision="I64">
					<dim>4</dim>
				</port>
			</output>
		</layer>
		<layer id="230" name="max_pooling1d_6/MaxPool/Transpose" type="Transpose" version="opset1">
			<input>
				<port id="0">
					<dim>1</dim>
					<dim>64</dim>
					<dim>2240</dim>
					<dim>1</dim>
				</port>
				<port id="1">
					<dim>4</dim>
				</port>
			</input>
			<output>
				<port id="2" precision="FP32">
					<dim>1</dim>
					<dim>2240</dim>
					<dim>1</dim>
					<dim>64</dim>
				</port>
			</output>
		</layer>
		<layer id="231" name="max_pooling1d_6/Squeeze/Dims/Output_0/Data__const" type="Const" version="opset1">
			<data element_type="i64" offset="2376" shape="1" size="8"/>
			<output>
				<port id="1" precision="I64">
					<dim>1</dim>
				</port>
			</output>
		</layer>
		<layer id="232" name="max_pooling1d_6/Squeeze" type="Squeeze" version="opset1">
			<input>
				<port id="0">
					<dim>1</dim>
					<dim>2240</dim>
					<dim>1</dim>
					<dim>64</dim>
				</port>
				<port id="1">
					<dim>1</dim>
				</port>
			</input>
			<output>
				<port id="2" precision="FP32">
					<dim>1</dim>
					<dim>2240</dim>
					<dim>64</dim>
				</port>
			</output>
		</layer>
		<layer id="233" name="batch_normalization_11/cond/batchnorm/mul/Output_0/Data_/copy_const" type="Const" version="opset1">
			<data element_type="f32" offset="923220" shape="1,1,64" size="256"/>
			<output>
				<port id="1" precision="FP32">
					<dim>1</dim>
					<dim>1</dim>
					<dim>64</dim>
				</port>
			</output>
		</layer>
		<layer id="234" name="batch_normalization_11/cond/batchnorm/mul_1" type="Multiply" version="opset1">
			<input>
				<port id="0">
					<dim>1</dim>
					<dim>4480</dim>
					<dim>64</dim>
				</port>
				<port id="1">
					<dim>1</dim>
					<dim>1</dim>
					<dim>64</dim>
				</port>
			</input>
			<output>
				<port id="2" precision="FP32">
					<dim>1</dim>
					<dim>4480</dim>
					<dim>64</dim>
				</port>
			</output>
		</layer>
		<layer id="235" name="batch_normalization_11/cond/batchnorm/sub/Output_0/Data_/copy_const" type="Const" version="opset1">
			<data element_type="f32" offset="923476" shape="1,1,64" size="256"/>
			<output>
				<port id="1" precision="FP32">
					<dim>1</dim>
					<dim>1</dim>
					<dim>64</dim>
				</port>
			</output>
		</layer>
		<layer id="236" name="batch_normalization_11/cond/batchnorm/add_1" type="Add" version="opset1">
			<input>
				<port id="0">
					<dim>1</dim>
					<dim>4480</dim>
					<dim>64</dim>
				</port>
				<port id="1">
					<dim>1</dim>
					<dim>1</dim>
					<dim>64</dim>
				</port>
			</input>
			<output>
				<port id="2" precision="FP32">
					<dim>1</dim>
					<dim>4480</dim>
					<dim>64</dim>
				</port>
			</output>
		</layer>
		<layer id="237" name="activation_11/Relu" type="ReLU" version="opset1">
			<input>
				<port id="0">
					<dim>1</dim>
					<dim>4480</dim>
					<dim>64</dim>
				</port>
			</input>
			<output>
				<port id="1" precision="FP32">
					<dim>1</dim>
					<dim>4480</dim>
					<dim>64</dim>
				</port>
			</output>
		</layer>
		<layer id="238" name="conv1d_12/convolution/ExpandDims/dim/Output_0/Data__const" type="Const" version="opset1">
			<data element_type="i64" offset="0" shape="1" size="8"/>
			<output>
				<port id="1" precision="I64">
					<dim>1</dim>
				</port>
			</output>
		</layer>
		<layer id="239" name="conv1d_12/convolution/ExpandDims" type="Unsqueeze" version="opset1">
			<input>
				<port id="0">
					<dim>1</dim>
					<dim>4480</dim>
					<dim>64</dim>
				</port>
				<port id="1">
					<dim>1</dim>
				</port>
			</input>
			<output>
				<port id="2" precision="FP32">
					<dim>1</dim>
					<dim>1</dim>
					<dim>4480</dim>
					<dim>64</dim>
				</port>
			</output>
		</layer>
		<layer id="240" name="conv1d_12/convolution/ExpandDims/Transpose/Cast_125070_const" type="Const" version="opset1">
			<data element_type="i64" offset="8" shape="4" size="32"/>
			<output>
				<port id="1" precision="I64">
					<dim>4</dim>
				</port>
			</output>
		</layer>
		<layer id="241" name="conv1d_12/convolution/ExpandDims/Transpose" type="Transpose" version="opset1">
			<input>
				<port id="0">
					<dim>1</dim>
					<dim>1</dim>
					<dim>4480</dim>
					<dim>64</dim>
				</port>
				<port id="1">
					<dim>4</dim>
				</port>
			</input>
			<output>
				<port id="2" precision="FP32">
					<dim>1</dim>
					<dim>64</dim>
					<dim>1</dim>
					<dim>4480</dim>
				</port>
			</output>
		</layer>
		<layer id="242" name="conv1d_12/convolution/ExpandDims_1/Output_0/Data__const" type="Const" version="opset1">
			<data element_type="f32" offset="923732" shape="64,64,1,16" size="262144"/>
			<output>
				<port id="1" precision="FP32">
					<dim>64</dim>
					<dim>64</dim>
					<dim>1</dim>
					<dim>16</dim>
				</port>
			</output>
		</layer>
		<layer id="243" name="conv1d_12/convolution/Conv2D" type="Convolution" version="opset1">
			<data auto_pad="same_upper" dilations="1,1" output_padding="0,0" pads_begin="0,7" pads_end="0,7" strides="1,2"/>
			<input>
				<port id="0">
					<dim>1</dim>
					<dim>64</dim>
					<dim>1</dim>
					<dim>4480</dim>
				</port>
				<port id="1">
					<dim>64</dim>
					<dim>64</dim>
					<dim>1</dim>
					<dim>16</dim>
				</port>
			</input>
			<output>
				<port id="2" precision="FP32">
					<dim>1</dim>
					<dim>64</dim>
					<dim>1</dim>
					<dim>2240</dim>
				</port>
			</output>
		</layer>
		<layer id="244" name="conv1d_12/convolution/Conv2D/Transpose/Cast_125052_const" type="Const" version="opset1">
			<data element_type="i64" offset="2088" shape="4" size="32"/>
			<output>
				<port id="1" precision="I64">
					<dim>4</dim>
				</port>
			</output>
		</layer>
		<layer id="245" name="conv1d_12/convolution/Conv2D/Transpose" type="Transpose" version="opset1">
			<input>
				<port id="0">
					<dim>1</dim>
					<dim>64</dim>
					<dim>1</dim>
					<dim>2240</dim>
				</port>
				<port id="1">
					<dim>4</dim>
				</port>
			</input>
			<output>
				<port id="2" precision="FP32">
					<dim>1</dim>
					<dim>1</dim>
					<dim>2240</dim>
					<dim>64</dim>
				</port>
			</output>
		</layer>
		<layer id="246" name="conv1d_12/convolution/Squeeze/Dims/Output_0/Data__const" type="Const" version="opset1">
			<data element_type="i64" offset="0" shape="1" size="8"/>
			<output>
				<port id="1" precision="I64">
					<dim>1</dim>
				</port>
			</output>
		</layer>
		<layer id="247" name="conv1d_12/convolution/Squeeze" type="Squeeze" version="opset1">
			<input>
				<port id="0">
					<dim>1</dim>
					<dim>1</dim>
					<dim>2240</dim>
					<dim>64</dim>
				</port>
				<port id="1">
					<dim>1</dim>
				</port>
			</input>
			<output>
				<port id="2" precision="FP32">
					<dim>1</dim>
					<dim>2240</dim>
					<dim>64</dim>
				</port>
			</output>
		</layer>
		<layer id="248" name="data_mul_1310213106/copy_const" type="Const" version="opset1">
			<data element_type="f32" offset="1185876" shape="1,1,64" size="256"/>
			<output>
				<port id="1" precision="FP32">
					<dim>1</dim>
					<dim>1</dim>
					<dim>64</dim>
				</port>
			</output>
		</layer>
		<layer id="249" name="batch_normalization_12/cond/batchnorm/mul_1/Fused_Mul_" type="Multiply" version="opset1">
			<input>
				<port id="0">
					<dim>1</dim>
					<dim>2240</dim>
					<dim>64</dim>
				</port>
				<port id="1">
					<dim>1</dim>
					<dim>1</dim>
					<dim>64</dim>
				</port>
			</input>
			<output>
				<port id="2" precision="FP32">
					<dim>1</dim>
					<dim>2240</dim>
					<dim>64</dim>
				</port>
			</output>
		</layer>
		<layer id="250" name="data_add_1310313108_const" type="Const" version="opset1">
			<data element_type="f32" offset="1186132" shape="1,1,64" size="256"/>
			<output>
				<port id="1" precision="FP32">
					<dim>1</dim>
					<dim>1</dim>
					<dim>64</dim>
				</port>
			</output>
		</layer>
		<layer id="251" name="conv1d_12/add/Fused_Add_" type="Add" version="opset1">
			<input>
				<port id="0">
					<dim>1</dim>
					<dim>2240</dim>
					<dim>64</dim>
				</port>
				<port id="1">
					<dim>1</dim>
					<dim>1</dim>
					<dim>64</dim>
				</port>
			</input>
			<output>
				<port id="2" precision="FP32">
					<dim>1</dim>
					<dim>2240</dim>
					<dim>64</dim>
				</port>
			</output>
		</layer>
		<layer id="252" name="activation_12/Relu" type="ReLU" version="opset1">
			<input>
				<port id="0">
					<dim>1</dim>
					<dim>2240</dim>
					<dim>64</dim>
				</port>
			</input>
			<output>
				<port id="1" precision="FP32">
					<dim>1</dim>
					<dim>2240</dim>
					<dim>64</dim>
				</port>
			</output>
		</layer>
		<layer id="253" name="conv1d_13/convolution/ExpandDims/dim/Output_0/Data__const" type="Const" version="opset1">
			<data element_type="i64" offset="0" shape="1" size="8"/>
			<output>
				<port id="1" precision="I64">
					<dim>1</dim>
				</port>
			</output>
		</layer>
		<layer id="254" name="conv1d_13/convolution/ExpandDims" type="Unsqueeze" version="opset1">
			<input>
				<port id="0">
					<dim>1</dim>
					<dim>2240</dim>
					<dim>64</dim>
				</port>
				<port id="1">
					<dim>1</dim>
				</port>
			</input>
			<output>
				<port id="2" precision="FP32">
					<dim>1</dim>
					<dim>1</dim>
					<dim>2240</dim>
					<dim>64</dim>
				</port>
			</output>
		</layer>
		<layer id="255" name="conv1d_13/convolution/ExpandDims/Transpose/Cast_125040_const" type="Const" version="opset1">
			<data element_type="i64" offset="8" shape="4" size="32"/>
			<output>
				<port id="1" precision="I64">
					<dim>4</dim>
				</port>
			</output>
		</layer>
		<layer id="256" name="conv1d_13/convolution/ExpandDims/Transpose" type="Transpose" version="opset1">
			<input>
				<port id="0">
					<dim>1</dim>
					<dim>1</dim>
					<dim>2240</dim>
					<dim>64</dim>
				</port>
				<port id="1">
					<dim>4</dim>
				</port>
			</input>
			<output>
				<port id="2" precision="FP32">
					<dim>1</dim>
					<dim>64</dim>
					<dim>1</dim>
					<dim>2240</dim>
				</port>
			</output>
		</layer>
		<layer id="257" name="conv1d_13/convolution/ExpandDims_1/Output_0/Data__const" type="Const" version="opset1">
			<data element_type="f32" offset="1186388" shape="64,64,1,16" size="262144"/>
			<output>
				<port id="1" precision="FP32">
					<dim>64</dim>
					<dim>64</dim>
					<dim>1</dim>
					<dim>16</dim>
				</port>
			</output>
		</layer>
		<layer id="258" name="conv1d_13/convolution/Conv2D" type="Convolution" version="opset1">
			<data auto_pad="same_upper" dilations="1,1" output_padding="0,0" pads_begin="0,7" pads_end="0,8" strides="1,1"/>
			<input>
				<port id="0">
					<dim>1</dim>
					<dim>64</dim>
					<dim>1</dim>
					<dim>2240</dim>
				</port>
				<port id="1">
					<dim>64</dim>
					<dim>64</dim>
					<dim>1</dim>
					<dim>16</dim>
				</port>
			</input>
			<output>
				<port id="2" precision="FP32">
					<dim>1</dim>
					<dim>64</dim>
					<dim>1</dim>
					<dim>2240</dim>
				</port>
			</output>
		</layer>
		<layer id="259" name="conv1d_13/convolution/Conv2D/Transpose/Cast_124968_const" type="Const" version="opset1">
			<data element_type="i64" offset="2088" shape="4" size="32"/>
			<output>
				<port id="1" precision="I64">
					<dim>4</dim>
				</port>
			</output>
		</layer>
		<layer id="260" name="conv1d_13/convolution/Conv2D/Transpose" type="Transpose" version="opset1">
			<input>
				<port id="0">
					<dim>1</dim>
					<dim>64</dim>
					<dim>1</dim>
					<dim>2240</dim>
				</port>
				<port id="1">
					<dim>4</dim>
				</port>
			</input>
			<output>
				<port id="2" precision="FP32">
					<dim>1</dim>
					<dim>1</dim>
					<dim>2240</dim>
					<dim>64</dim>
				</port>
			</output>
		</layer>
		<layer id="261" name="conv1d_13/convolution/Squeeze/Dims/Output_0/Data__const" type="Const" version="opset1">
			<data element_type="i64" offset="0" shape="1" size="8"/>
			<output>
				<port id="1" precision="I64">
					<dim>1</dim>
				</port>
			</output>
		</layer>
		<layer id="262" name="conv1d_13/convolution/Squeeze" type="Squeeze" version="opset1">
			<input>
				<port id="0">
					<dim>1</dim>
					<dim>1</dim>
					<dim>2240</dim>
					<dim>64</dim>
				</port>
				<port id="1">
					<dim>1</dim>
				</port>
			</input>
			<output>
				<port id="2" precision="FP32">
					<dim>1</dim>
					<dim>2240</dim>
					<dim>64</dim>
				</port>
			</output>
		</layer>
		<layer id="263" name="conv1d_13/Reshape/Output_0/Data__const" type="Const" version="opset1">
			<data element_type="f32" offset="1448532" shape="1,1,64" size="256"/>
			<output>
				<port id="1" precision="FP32">
					<dim>1</dim>
					<dim>1</dim>
					<dim>64</dim>
				</port>
			</output>
		</layer>
		<layer id="264" name="conv1d_13/add" type="Add" version="opset1">
			<input>
				<port id="0">
					<dim>1</dim>
					<dim>2240</dim>
					<dim>64</dim>
				</port>
				<port id="1">
					<dim>1</dim>
					<dim>1</dim>
					<dim>64</dim>
				</port>
			</input>
			<output>
				<port id="2" precision="FP32">
					<dim>1</dim>
					<dim>2240</dim>
					<dim>64</dim>
				</port>
			</output>
		</layer>
		<layer id="265" name="add_6/add" type="Add" version="opset1">
			<input>
				<port id="0">
					<dim>1</dim>
					<dim>2240</dim>
					<dim>64</dim>
				</port>
				<port id="1">
					<dim>1</dim>
					<dim>2240</dim>
					<dim>64</dim>
				</port>
			</input>
			<output>
				<port id="2" precision="FP32">
					<dim>1</dim>
					<dim>2240</dim>
					<dim>64</dim>
				</port>
			</output>
		</layer>
		<layer id="266" name="max_pooling1d_7/ExpandDims/dim/Output_0/Data__const" type="Const" version="opset1">
			<data element_type="i64" offset="2376" shape="1" size="8"/>
			<output>
				<port id="1" precision="I64">
					<dim>1</dim>
				</port>
			</output>
		</layer>
		<layer id="267" name="max_pooling1d_7/ExpandDims" type="Unsqueeze" version="opset1">
			<input>
				<port id="0">
					<dim>1</dim>
					<dim>2240</dim>
					<dim>64</dim>
				</port>
				<port id="1">
					<dim>1</dim>
				</port>
			</input>
			<output>
				<port id="2" precision="FP32">
					<dim>1</dim>
					<dim>2240</dim>
					<dim>1</dim>
					<dim>64</dim>
				</port>
			</output>
		</layer>
		<layer id="268" name="max_pooling1d_7/ExpandDims/Transpose/Cast_124964_const" type="Const" version="opset1">
			<data element_type="i64" offset="8" shape="4" size="32"/>
			<output>
				<port id="1" precision="I64">
					<dim>4</dim>
				</port>
			</output>
		</layer>
		<layer id="269" name="max_pooling1d_7/ExpandDims/Transpose" type="Transpose" version="opset1">
			<input>
				<port id="0">
					<dim>1</dim>
					<dim>2240</dim>
					<dim>1</dim>
					<dim>64</dim>
				</port>
				<port id="1">
					<dim>4</dim>
				</port>
			</input>
			<output>
				<port id="2" precision="FP32">
					<dim>1</dim>
					<dim>64</dim>
					<dim>2240</dim>
					<dim>1</dim>
				</port>
			</output>
		</layer>
		<layer id="270" name="max_pooling1d_7/MaxPool" type="MaxPool" version="opset1">
			<data auto_pad="valid" kernel="1,1" pads_begin="0,0" pads_end="0,0" strides="1,1"/>
			<input>
				<port id="0">
					<dim>1</dim>
					<dim>64</dim>
					<dim>2240</dim>
					<dim>1</dim>
				</port>
			</input>
			<output>
				<port id="1" precision="FP32">
					<dim>1</dim>
					<dim>64</dim>
					<dim>2240</dim>
					<dim>1</dim>
				</port>
			</output>
		</layer>
		<layer id="271" name="max_pooling1d_7/MaxPool/Transpose/Cast_125038_const" type="Const" version="opset1">
			<data element_type="i64" offset="2088" shape="4" size="32"/>
			<output>
				<port id="1" precision="I64">
					<dim>4</dim>
				</port>
			</output>
		</layer>
		<layer id="272" name="max_pooling1d_7/MaxPool/Transpose" type="Transpose" version="opset1">
			<input>
				<port id="0">
					<dim>1</dim>
					<dim>64</dim>
					<dim>2240</dim>
					<dim>1</dim>
				</port>
				<port id="1">
					<dim>4</dim>
				</port>
			</input>
			<output>
				<port id="2" precision="FP32">
					<dim>1</dim>
					<dim>2240</dim>
					<dim>1</dim>
					<dim>64</dim>
				</port>
			</output>
		</layer>
		<layer id="273" name="max_pooling1d_7/Squeeze/Dims/Output_0/Data__const" type="Const" version="opset1">
			<data element_type="i64" offset="2376" shape="1" size="8"/>
			<output>
				<port id="1" precision="I64">
					<dim>1</dim>
				</port>
			</output>
		</layer>
		<layer id="274" name="max_pooling1d_7/Squeeze" type="Squeeze" version="opset1">
			<input>
				<port id="0">
					<dim>1</dim>
					<dim>2240</dim>
					<dim>1</dim>
					<dim>64</dim>
				</port>
				<port id="1">
					<dim>1</dim>
				</port>
			</input>
			<output>
				<port id="2" precision="FP32">
					<dim>1</dim>
					<dim>2240</dim>
					<dim>64</dim>
				</port>
			</output>
		</layer>
		<layer id="275" name="batch_normalization_13/cond/batchnorm/mul/Output_0/Data_/copy_const" type="Const" version="opset1">
			<data element_type="f32" offset="1448788" shape="1,1,64" size="256"/>
			<output>
				<port id="1" precision="FP32">
					<dim>1</dim>
					<dim>1</dim>
					<dim>64</dim>
				</port>
			</output>
		</layer>
		<layer id="276" name="batch_normalization_13/cond/batchnorm/mul_1" type="Multiply" version="opset1">
			<input>
				<port id="0">
					<dim>1</dim>
					<dim>2240</dim>
					<dim>64</dim>
				</port>
				<port id="1">
					<dim>1</dim>
					<dim>1</dim>
					<dim>64</dim>
				</port>
			</input>
			<output>
				<port id="2" precision="FP32">
					<dim>1</dim>
					<dim>2240</dim>
					<dim>64</dim>
				</port>
			</output>
		</layer>
		<layer id="277" name="batch_normalization_13/cond/batchnorm/sub/Output_0/Data_/copy_const" type="Const" version="opset1">
			<data element_type="f32" offset="1449044" shape="1,1,64" size="256"/>
			<output>
				<port id="1" precision="FP32">
					<dim>1</dim>
					<dim>1</dim>
					<dim>64</dim>
				</port>
			</output>
		</layer>
		<layer id="278" name="batch_normalization_13/cond/batchnorm/add_1" type="Add" version="opset1">
			<input>
				<port id="0">
					<dim>1</dim>
					<dim>2240</dim>
					<dim>64</dim>
				</port>
				<port id="1">
					<dim>1</dim>
					<dim>1</dim>
					<dim>64</dim>
				</port>
			</input>
			<output>
				<port id="2" precision="FP32">
					<dim>1</dim>
					<dim>2240</dim>
					<dim>64</dim>
				</port>
			</output>
		</layer>
		<layer id="279" name="activation_13/Relu" type="ReLU" version="opset1">
			<input>
				<port id="0">
					<dim>1</dim>
					<dim>2240</dim>
					<dim>64</dim>
				</port>
			</input>
			<output>
				<port id="1" precision="FP32">
					<dim>1</dim>
					<dim>2240</dim>
					<dim>64</dim>
				</port>
			</output>
		</layer>
		<layer id="280" name="conv1d_14/convolution/ExpandDims/dim/Output_0/Data__const" type="Const" version="opset1">
			<data element_type="i64" offset="0" shape="1" size="8"/>
			<output>
				<port id="1" precision="I64">
					<dim>1</dim>
				</port>
			</output>
		</layer>
		<layer id="281" name="conv1d_14/convolution/ExpandDims" type="Unsqueeze" version="opset1">
			<input>
				<port id="0">
					<dim>1</dim>
					<dim>2240</dim>
					<dim>64</dim>
				</port>
				<port id="1">
					<dim>1</dim>
				</port>
			</input>
			<output>
				<port id="2" precision="FP32">
					<dim>1</dim>
					<dim>1</dim>
					<dim>2240</dim>
					<dim>64</dim>
				</port>
			</output>
		</layer>
		<layer id="282" name="conv1d_14/convolution/ExpandDims/Transpose/Cast_124958_const" type="Const" version="opset1">
			<data element_type="i64" offset="8" shape="4" size="32"/>
			<output>
				<port id="1" precision="I64">
					<dim>4</dim>
				</port>
			</output>
		</layer>
		<layer id="283" name="conv1d_14/convolution/ExpandDims/Transpose" type="Transpose" version="opset1">
			<input>
				<port id="0">
					<dim>1</dim>
					<dim>1</dim>
					<dim>2240</dim>
					<dim>64</dim>
				</port>
				<port id="1">
					<dim>4</dim>
				</port>
			</input>
			<output>
				<port id="2" precision="FP32">
					<dim>1</dim>
					<dim>64</dim>
					<dim>1</dim>
					<dim>2240</dim>
				</port>
			</output>
		</layer>
		<layer id="284" name="conv1d_14/convolution/ExpandDims_1/Output_0/Data__const" type="Const" version="opset1">
			<data element_type="f32" offset="1449300" shape="64,64,1,16" size="262144"/>
			<output>
				<port id="1" precision="FP32">
					<dim>64</dim>
					<dim>64</dim>
					<dim>1</dim>
					<dim>16</dim>
				</port>
			</output>
		</layer>
		<layer id="285" name="conv1d_14/convolution/Conv2D" type="Convolution" version="opset1">
			<data auto_pad="same_upper" dilations="1,1" output_padding="0,0" pads_begin="0,7" pads_end="0,8" strides="1,1"/>
			<input>
				<port id="0">
					<dim>1</dim>
					<dim>64</dim>
					<dim>1</dim>
					<dim>2240</dim>
				</port>
				<port id="1">
					<dim>64</dim>
					<dim>64</dim>
					<dim>1</dim>
					<dim>16</dim>
				</port>
			</input>
			<output>
				<port id="2" precision="FP32">
					<dim>1</dim>
					<dim>64</dim>
					<dim>1</dim>
					<dim>2240</dim>
				</port>
			</output>
		</layer>
		<layer id="286" name="conv1d_14/convolution/Conv2D/Transpose/Cast_125082_const" type="Const" version="opset1">
			<data element_type="i64" offset="2088" shape="4" size="32"/>
			<output>
				<port id="1" precision="I64">
					<dim>4</dim>
				</port>
			</output>
		</layer>
		<layer id="287" name="conv1d_14/convolution/Conv2D/Transpose" type="Transpose" version="opset1">
			<input>
				<port id="0">
					<dim>1</dim>
					<dim>64</dim>
					<dim>1</dim>
					<dim>2240</dim>
				</port>
				<port id="1">
					<dim>4</dim>
				</port>
			</input>
			<output>
				<port id="2" precision="FP32">
					<dim>1</dim>
					<dim>1</dim>
					<dim>2240</dim>
					<dim>64</dim>
				</port>
			</output>
		</layer>
		<layer id="288" name="conv1d_14/convolution/Squeeze/Dims/Output_0/Data__const" type="Const" version="opset1">
			<data element_type="i64" offset="0" shape="1" size="8"/>
			<output>
				<port id="1" precision="I64">
					<dim>1</dim>
				</port>
			</output>
		</layer>
		<layer id="289" name="conv1d_14/convolution/Squeeze" type="Squeeze" version="opset1">
			<input>
				<port id="0">
					<dim>1</dim>
					<dim>1</dim>
					<dim>2240</dim>
					<dim>64</dim>
				</port>
				<port id="1">
					<dim>1</dim>
				</port>
			</input>
			<output>
				<port id="2" precision="FP32">
					<dim>1</dim>
					<dim>2240</dim>
					<dim>64</dim>
				</port>
			</output>
		</layer>
		<layer id="290" name="data_mul_1311013114/copy_const" type="Const" version="opset1">
			<data element_type="f32" offset="1711444" shape="1,1,64" size="256"/>
			<output>
				<port id="1" precision="FP32">
					<dim>1</dim>
					<dim>1</dim>
					<dim>64</dim>
				</port>
			</output>
		</layer>
		<layer id="291" name="batch_normalization_14/cond/batchnorm/mul_1/Fused_Mul_" type="Multiply" version="opset1">
			<input>
				<port id="0">
					<dim>1</dim>
					<dim>2240</dim>
					<dim>64</dim>
				</port>
				<port id="1">
					<dim>1</dim>
					<dim>1</dim>
					<dim>64</dim>
				</port>
			</input>
			<output>
				<port id="2" precision="FP32">
					<dim>1</dim>
					<dim>2240</dim>
					<dim>64</dim>
				</port>
			</output>
		</layer>
		<layer id="292" name="data_add_1311113116_const" type="Const" version="opset1">
			<data element_type="f32" offset="1711700" shape="1,1,64" size="256"/>
			<output>
				<port id="1" precision="FP32">
					<dim>1</dim>
					<dim>1</dim>
					<dim>64</dim>
				</port>
			</output>
		</layer>
		<layer id="293" name="conv1d_14/add/Fused_Add_" type="Add" version="opset1">
			<input>
				<port id="0">
					<dim>1</dim>
					<dim>2240</dim>
					<dim>64</dim>
				</port>
				<port id="1">
					<dim>1</dim>
					<dim>1</dim>
					<dim>64</dim>
				</port>
			</input>
			<output>
				<port id="2" precision="FP32">
					<dim>1</dim>
					<dim>2240</dim>
					<dim>64</dim>
				</port>
			</output>
		</layer>
		<layer id="294" name="activation_14/Relu" type="ReLU" version="opset1">
			<input>
				<port id="0">
					<dim>1</dim>
					<dim>2240</dim>
					<dim>64</dim>
				</port>
			</input>
			<output>
				<port id="1" precision="FP32">
					<dim>1</dim>
					<dim>2240</dim>
					<dim>64</dim>
				</port>
			</output>
		</layer>
		<layer id="295" name="conv1d_15/convolution/ExpandDims/dim/Output_0/Data__const" type="Const" version="opset1">
			<data element_type="i64" offset="0" shape="1" size="8"/>
			<output>
				<port id="1" precision="I64">
					<dim>1</dim>
				</port>
			</output>
		</layer>
		<layer id="296" name="conv1d_15/convolution/ExpandDims" type="Unsqueeze" version="opset1">
			<input>
				<port id="0">
					<dim>1</dim>
					<dim>2240</dim>
					<dim>64</dim>
				</port>
				<port id="1">
					<dim>1</dim>
				</port>
			</input>
			<output>
				<port id="2" precision="FP32">
					<dim>1</dim>
					<dim>1</dim>
					<dim>2240</dim>
					<dim>64</dim>
				</port>
			</output>
		</layer>
		<layer id="297" name="conv1d_15/convolution/ExpandDims/Transpose/Cast_124906_const" type="Const" version="opset1">
			<data element_type="i64" offset="8" shape="4" size="32"/>
			<output>
				<port id="1" precision="I64">
					<dim>4</dim>
				</port>
			</output>
		</layer>
		<layer id="298" name="conv1d_15/convolution/ExpandDims/Transpose" type="Transpose" version="opset1">
			<input>
				<port id="0">
					<dim>1</dim>
					<dim>1</dim>
					<dim>2240</dim>
					<dim>64</dim>
				</port>
				<port id="1">
					<dim>4</dim>
				</port>
			</input>
			<output>
				<port id="2" precision="FP32">
					<dim>1</dim>
					<dim>64</dim>
					<dim>1</dim>
					<dim>2240</dim>
				</port>
			</output>
		</layer>
		<layer id="299" name="conv1d_15/convolution/ExpandDims_1/Output_0/Data__const" type="Const" version="opset1">
			<data element_type="f32" offset="1711956" shape="64,64,1,16" size="262144"/>
			<output>
				<port id="1" precision="FP32">
					<dim>64</dim>
					<dim>64</dim>
					<dim>1</dim>
					<dim>16</dim>
				</port>
			</output>
		</layer>
		<layer id="300" name="conv1d_15/convolution/Conv2D" type="Convolution" version="opset1">
			<data auto_pad="same_upper" dilations="1,1" output_padding="0,0" pads_begin="0,7" pads_end="0,8" strides="1,1"/>
			<input>
				<port id="0">
					<dim>1</dim>
					<dim>64</dim>
					<dim>1</dim>
					<dim>2240</dim>
				</port>
				<port id="1">
					<dim>64</dim>
					<dim>64</dim>
					<dim>1</dim>
					<dim>16</dim>
				</port>
			</input>
			<output>
				<port id="2" precision="FP32">
					<dim>1</dim>
					<dim>64</dim>
					<dim>1</dim>
					<dim>2240</dim>
				</port>
			</output>
		</layer>
		<layer id="301" name="conv1d_15/convolution/Conv2D/Transpose/Cast_124950_const" type="Const" version="opset1">
			<data element_type="i64" offset="2088" shape="4" size="32"/>
			<output>
				<port id="1" precision="I64">
					<dim>4</dim>
				</port>
			</output>
		</layer>
		<layer id="302" name="conv1d_15/convolution/Conv2D/Transpose" type="Transpose" version="opset1">
			<input>
				<port id="0">
					<dim>1</dim>
					<dim>64</dim>
					<dim>1</dim>
					<dim>2240</dim>
				</port>
				<port id="1">
					<dim>4</dim>
				</port>
			</input>
			<output>
				<port id="2" precision="FP32">
					<dim>1</dim>
					<dim>1</dim>
					<dim>2240</dim>
					<dim>64</dim>
				</port>
			</output>
		</layer>
		<layer id="303" name="conv1d_15/convolution/Squeeze/Dims/Output_0/Data__const" type="Const" version="opset1">
			<data element_type="i64" offset="0" shape="1" size="8"/>
			<output>
				<port id="1" precision="I64">
					<dim>1</dim>
				</port>
			</output>
		</layer>
		<layer id="304" name="conv1d_15/convolution/Squeeze" type="Squeeze" version="opset1">
			<input>
				<port id="0">
					<dim>1</dim>
					<dim>1</dim>
					<dim>2240</dim>
					<dim>64</dim>
				</port>
				<port id="1">
					<dim>1</dim>
				</port>
			</input>
			<output>
				<port id="2" precision="FP32">
					<dim>1</dim>
					<dim>2240</dim>
					<dim>64</dim>
				</port>
			</output>
		</layer>
		<layer id="305" name="conv1d_15/Reshape/Output_0/Data__const" type="Const" version="opset1">
			<data element_type="f32" offset="1974100" shape="1,1,64" size="256"/>
			<output>
				<port id="1" precision="FP32">
					<dim>1</dim>
					<dim>1</dim>
					<dim>64</dim>
				</port>
			</output>
		</layer>
		<layer id="306" name="conv1d_15/add" type="Add" version="opset1">
			<input>
				<port id="0">
					<dim>1</dim>
					<dim>2240</dim>
					<dim>64</dim>
				</port>
				<port id="1">
					<dim>1</dim>
					<dim>1</dim>
					<dim>64</dim>
				</port>
			</input>
			<output>
				<port id="2" precision="FP32">
					<dim>1</dim>
					<dim>2240</dim>
					<dim>64</dim>
				</port>
			</output>
		</layer>
		<layer id="307" name="add_7/add" type="Add" version="opset1">
			<input>
				<port id="0">
					<dim>1</dim>
					<dim>2240</dim>
					<dim>64</dim>
				</port>
				<port id="1">
					<dim>1</dim>
					<dim>2240</dim>
					<dim>64</dim>
				</port>
			</input>
			<output>
				<port id="2" precision="FP32">
					<dim>1</dim>
					<dim>2240</dim>
					<dim>64</dim>
				</port>
			</output>
		</layer>
		<layer id="308" name="max_pooling1d_8/ExpandDims/dim/Output_0/Data__const" type="Const" version="opset1">
			<data element_type="i64" offset="2376" shape="1" size="8"/>
			<output>
				<port id="1" precision="I64">
					<dim>1</dim>
				</port>
			</output>
		</layer>
		<layer id="309" name="max_pooling1d_8/ExpandDims" type="Unsqueeze" version="opset1">
			<input>
				<port id="0">
					<dim>1</dim>
					<dim>2240</dim>
					<dim>64</dim>
				</port>
				<port id="1">
					<dim>1</dim>
				</port>
			</input>
			<output>
				<port id="2" precision="FP32">
					<dim>1</dim>
					<dim>2240</dim>
					<dim>1</dim>
					<dim>64</dim>
				</port>
			</output>
		</layer>
		<layer id="310" name="max_pooling1d_8/ExpandDims/Transpose/Cast_124954_const" type="Const" version="opset1">
			<data element_type="i64" offset="8" shape="4" size="32"/>
			<output>
				<port id="1" precision="I64">
					<dim>4</dim>
				</port>
			</output>
		</layer>
		<layer id="311" name="max_pooling1d_8/ExpandDims/Transpose" type="Transpose" version="opset1">
			<input>
				<port id="0">
					<dim>1</dim>
					<dim>2240</dim>
					<dim>1</dim>
					<dim>64</dim>
				</port>
				<port id="1">
					<dim>4</dim>
				</port>
			</input>
			<output>
				<port id="2" precision="FP32">
					<dim>1</dim>
					<dim>64</dim>
					<dim>2240</dim>
					<dim>1</dim>
				</port>
			</output>
		</layer>
		<layer id="312" name="max_pooling1d_8/MaxPool" type="MaxPool" version="opset1">
			<data auto_pad="valid" kernel="2,1" pads_begin="0,0" pads_end="0,0" strides="2,1"/>
			<input>
				<port id="0">
					<dim>1</dim>
					<dim>64</dim>
					<dim>2240</dim>
					<dim>1</dim>
				</port>
			</input>
			<output>
				<port id="1" precision="FP32">
					<dim>1</dim>
					<dim>64</dim>
					<dim>1120</dim>
					<dim>1</dim>
				</port>
			</output>
		</layer>
		<layer id="313" name="max_pooling1d_8/MaxPool/Transpose/Cast_124890_const" type="Const" version="opset1">
			<data element_type="i64" offset="2088" shape="4" size="32"/>
			<output>
				<port id="1" precision="I64">
					<dim>4</dim>
				</port>
			</output>
		</layer>
		<layer id="314" name="max_pooling1d_8/MaxPool/Transpose" type="Transpose" version="opset1">
			<input>
				<port id="0">
					<dim>1</dim>
					<dim>64</dim>
					<dim>1120</dim>
					<dim>1</dim>
				</port>
				<port id="1">
					<dim>4</dim>
				</port>
			</input>
			<output>
				<port id="2" precision="FP32">
					<dim>1</dim>
					<dim>1120</dim>
					<dim>1</dim>
					<dim>64</dim>
				</port>
			</output>
		</layer>
		<layer id="315" name="max_pooling1d_8/Squeeze/Dims/Output_0/Data__const" type="Const" version="opset1">
			<data element_type="i64" offset="2376" shape="1" size="8"/>
			<output>
				<port id="1" precision="I64">
					<dim>1</dim>
				</port>
			</output>
		</layer>
		<layer id="316" name="max_pooling1d_8/Squeeze" type="Squeeze" version="opset1">
			<input>
				<port id="0">
					<dim>1</dim>
					<dim>1120</dim>
					<dim>1</dim>
					<dim>64</dim>
				</port>
				<port id="1">
					<dim>1</dim>
				</port>
			</input>
			<output>
				<port id="2" precision="FP32">
					<dim>1</dim>
					<dim>1120</dim>
					<dim>64</dim>
				</port>
			</output>
		</layer>
		<layer id="317" name="batch_normalization_15/cond/batchnorm/mul/Output_0/Data_/copy_const" type="Const" version="opset1">
			<data element_type="f32" offset="1974356" shape="1,1,64" size="256"/>
			<output>
				<port id="1" precision="FP32">
					<dim>1</dim>
					<dim>1</dim>
					<dim>64</dim>
				</port>
			</output>
		</layer>
		<layer id="318" name="batch_normalization_15/cond/batchnorm/mul_1" type="Multiply" version="opset1">
			<input>
				<port id="0">
					<dim>1</dim>
					<dim>2240</dim>
					<dim>64</dim>
				</port>
				<port id="1">
					<dim>1</dim>
					<dim>1</dim>
					<dim>64</dim>
				</port>
			</input>
			<output>
				<port id="2" precision="FP32">
					<dim>1</dim>
					<dim>2240</dim>
					<dim>64</dim>
				</port>
			</output>
		</layer>
		<layer id="319" name="batch_normalization_15/cond/batchnorm/sub/Output_0/Data_/copy_const" type="Const" version="opset1">
			<data element_type="f32" offset="1974612" shape="1,1,64" size="256"/>
			<output>
				<port id="1" precision="FP32">
					<dim>1</dim>
					<dim>1</dim>
					<dim>64</dim>
				</port>
			</output>
		</layer>
		<layer id="320" name="batch_normalization_15/cond/batchnorm/add_1" type="Add" version="opset1">
			<input>
				<port id="0">
					<dim>1</dim>
					<dim>2240</dim>
					<dim>64</dim>
				</port>
				<port id="1">
					<dim>1</dim>
					<dim>1</dim>
					<dim>64</dim>
				</port>
			</input>
			<output>
				<port id="2" precision="FP32">
					<dim>1</dim>
					<dim>2240</dim>
					<dim>64</dim>
				</port>
			</output>
		</layer>
		<layer id="321" name="activation_15/Relu" type="ReLU" version="opset1">
			<input>
				<port id="0">
					<dim>1</dim>
					<dim>2240</dim>
					<dim>64</dim>
				</port>
			</input>
			<output>
				<port id="1" precision="FP32">
					<dim>1</dim>
					<dim>2240</dim>
					<dim>64</dim>
				</port>
			</output>
		</layer>
		<layer id="322" name="conv1d_16/convolution/ExpandDims/dim/Output_0/Data__const" type="Const" version="opset1">
			<data element_type="i64" offset="0" shape="1" size="8"/>
			<output>
				<port id="1" precision="I64">
					<dim>1</dim>
				</port>
			</output>
		</layer>
		<layer id="323" name="conv1d_16/convolution/ExpandDims" type="Unsqueeze" version="opset1">
			<input>
				<port id="0">
					<dim>1</dim>
					<dim>2240</dim>
					<dim>64</dim>
				</port>
				<port id="1">
					<dim>1</dim>
				</port>
			</input>
			<output>
				<port id="2" precision="FP32">
					<dim>1</dim>
					<dim>1</dim>
					<dim>2240</dim>
					<dim>64</dim>
				</port>
			</output>
		</layer>
		<layer id="324" name="conv1d_16/convolution/ExpandDims/Transpose/Cast_124940_const" type="Const" version="opset1">
			<data element_type="i64" offset="8" shape="4" size="32"/>
			<output>
				<port id="1" precision="I64">
					<dim>4</dim>
				</port>
			</output>
		</layer>
		<layer id="325" name="conv1d_16/convolution/ExpandDims/Transpose" type="Transpose" version="opset1">
			<input>
				<port id="0">
					<dim>1</dim>
					<dim>1</dim>
					<dim>2240</dim>
					<dim>64</dim>
				</port>
				<port id="1">
					<dim>4</dim>
				</port>
			</input>
			<output>
				<port id="2" precision="FP32">
					<dim>1</dim>
					<dim>64</dim>
					<dim>1</dim>
					<dim>2240</dim>
				</port>
			</output>
		</layer>
		<layer id="326" name="conv1d_16/convolution/ExpandDims_1/Output_0/Data__const" type="Const" version="opset1">
			<data element_type="f32" offset="1974868" shape="64,64,1,16" size="262144"/>
			<output>
				<port id="1" precision="FP32">
					<dim>64</dim>
					<dim>64</dim>
					<dim>1</dim>
					<dim>16</dim>
				</port>
			</output>
		</layer>
		<layer id="327" name="conv1d_16/convolution/Conv2D" type="Convolution" version="opset1">
			<data auto_pad="same_upper" dilations="1,1" output_padding="0,0" pads_begin="0,7" pads_end="0,7" strides="1,2"/>
			<input>
				<port id="0">
					<dim>1</dim>
					<dim>64</dim>
					<dim>1</dim>
					<dim>2240</dim>
				</port>
				<port id="1">
					<dim>64</dim>
					<dim>64</dim>
					<dim>1</dim>
					<dim>16</dim>
				</port>
			</input>
			<output>
				<port id="2" precision="FP32">
					<dim>1</dim>
					<dim>64</dim>
					<dim>1</dim>
					<dim>1120</dim>
				</port>
			</output>
		</layer>
		<layer id="328" name="conv1d_16/convolution/Conv2D/Transpose/Cast_125086_const" type="Const" version="opset1">
			<data element_type="i64" offset="2088" shape="4" size="32"/>
			<output>
				<port id="1" precision="I64">
					<dim>4</dim>
				</port>
			</output>
		</layer>
		<layer id="329" name="conv1d_16/convolution/Conv2D/Transpose" type="Transpose" version="opset1">
			<input>
				<port id="0">
					<dim>1</dim>
					<dim>64</dim>
					<dim>1</dim>
					<dim>1120</dim>
				</port>
				<port id="1">
					<dim>4</dim>
				</port>
			</input>
			<output>
				<port id="2" precision="FP32">
					<dim>1</dim>
					<dim>1</dim>
					<dim>1120</dim>
					<dim>64</dim>
				</port>
			</output>
		</layer>
		<layer id="330" name="conv1d_16/convolution/Squeeze/Dims/Output_0/Data__const" type="Const" version="opset1">
			<data element_type="i64" offset="0" shape="1" size="8"/>
			<output>
				<port id="1" precision="I64">
					<dim>1</dim>
				</port>
			</output>
		</layer>
		<layer id="331" name="conv1d_16/convolution/Squeeze" type="Squeeze" version="opset1">
			<input>
				<port id="0">
					<dim>1</dim>
					<dim>1</dim>
					<dim>1120</dim>
					<dim>64</dim>
				</port>
				<port id="1">
					<dim>1</dim>
				</port>
			</input>
			<output>
				<port id="2" precision="FP32">
					<dim>1</dim>
					<dim>1120</dim>
					<dim>64</dim>
				</port>
			</output>
		</layer>
		<layer id="332" name="data_mul_1311813122/copy_const" type="Const" version="opset1">
			<data element_type="f32" offset="2237012" shape="1,1,64" size="256"/>
			<output>
				<port id="1" precision="FP32">
					<dim>1</dim>
					<dim>1</dim>
					<dim>64</dim>
				</port>
			</output>
		</layer>
		<layer id="333" name="batch_normalization_16/cond/batchnorm/mul_1/Fused_Mul_" type="Multiply" version="opset1">
			<input>
				<port id="0">
					<dim>1</dim>
					<dim>1120</dim>
					<dim>64</dim>
				</port>
				<port id="1">
					<dim>1</dim>
					<dim>1</dim>
					<dim>64</dim>
				</port>
			</input>
			<output>
				<port id="2" precision="FP32">
					<dim>1</dim>
					<dim>1120</dim>
					<dim>64</dim>
				</port>
			</output>
		</layer>
		<layer id="334" name="data_add_1311913124_const" type="Const" version="opset1">
			<data element_type="f32" offset="2237268" shape="1,1,64" size="256"/>
			<output>
				<port id="1" precision="FP32">
					<dim>1</dim>
					<dim>1</dim>
					<dim>64</dim>
				</port>
			</output>
		</layer>
		<layer id="335" name="conv1d_16/add/Fused_Add_" type="Add" version="opset1">
			<input>
				<port id="0">
					<dim>1</dim>
					<dim>1120</dim>
					<dim>64</dim>
				</port>
				<port id="1">
					<dim>1</dim>
					<dim>1</dim>
					<dim>64</dim>
				</port>
			</input>
			<output>
				<port id="2" precision="FP32">
					<dim>1</dim>
					<dim>1120</dim>
					<dim>64</dim>
				</port>
			</output>
		</layer>
		<layer id="336" name="activation_16/Relu" type="ReLU" version="opset1">
			<input>
				<port id="0">
					<dim>1</dim>
					<dim>1120</dim>
					<dim>64</dim>
				</port>
			</input>
			<output>
				<port id="1" precision="FP32">
					<dim>1</dim>
					<dim>1120</dim>
					<dim>64</dim>
				</port>
			</output>
		</layer>
		<layer id="337" name="conv1d_17/convolution/ExpandDims/dim/Output_0/Data__const" type="Const" version="opset1">
			<data element_type="i64" offset="0" shape="1" size="8"/>
			<output>
				<port id="1" precision="I64">
					<dim>1</dim>
				</port>
			</output>
		</layer>
		<layer id="338" name="conv1d_17/convolution/ExpandDims" type="Unsqueeze" version="opset1">
			<input>
				<port id="0">
					<dim>1</dim>
					<dim>1120</dim>
					<dim>64</dim>
				</port>
				<port id="1">
					<dim>1</dim>
				</port>
			</input>
			<output>
				<port id="2" precision="FP32">
					<dim>1</dim>
					<dim>1</dim>
					<dim>1120</dim>
					<dim>64</dim>
				</port>
			</output>
		</layer>
		<layer id="339" name="conv1d_17/convolution/ExpandDims/Transpose/Cast_125058_const" type="Const" version="opset1">
			<data element_type="i64" offset="8" shape="4" size="32"/>
			<output>
				<port id="1" precision="I64">
					<dim>4</dim>
				</port>
			</output>
		</layer>
		<layer id="340" name="conv1d_17/convolution/ExpandDims/Transpose" type="Transpose" version="opset1">
			<input>
				<port id="0">
					<dim>1</dim>
					<dim>1</dim>
					<dim>1120</dim>
					<dim>64</dim>
				</port>
				<port id="1">
					<dim>4</dim>
				</port>
			</input>
			<output>
				<port id="2" precision="FP32">
					<dim>1</dim>
					<dim>64</dim>
					<dim>1</dim>
					<dim>1120</dim>
				</port>
			</output>
		</layer>
		<layer id="341" name="conv1d_17/convolution/ExpandDims_1/Output_0/Data__const" type="Const" version="opset1">
			<data element_type="f32" offset="2237524" shape="64,64,1,16" size="262144"/>
			<output>
				<port id="1" precision="FP32">
					<dim>64</dim>
					<dim>64</dim>
					<dim>1</dim>
					<dim>16</dim>
				</port>
			</output>
		</layer>
		<layer id="342" name="conv1d_17/convolution/Conv2D" type="Convolution" version="opset1">
			<data auto_pad="same_upper" dilations="1,1" output_padding="0,0" pads_begin="0,7" pads_end="0,8" strides="1,1"/>
			<input>
				<port id="0">
					<dim>1</dim>
					<dim>64</dim>
					<dim>1</dim>
					<dim>1120</dim>
				</port>
				<port id="1">
					<dim>64</dim>
					<dim>64</dim>
					<dim>1</dim>
					<dim>16</dim>
				</port>
			</input>
			<output>
				<port id="2" precision="FP32">
					<dim>1</dim>
					<dim>64</dim>
					<dim>1</dim>
					<dim>1120</dim>
				</port>
			</output>
		</layer>
		<layer id="343" name="conv1d_17/convolution/Conv2D/Transpose/Cast_125018_const" type="Const" version="opset1">
			<data element_type="i64" offset="2088" shape="4" size="32"/>
			<output>
				<port id="1" precision="I64">
					<dim>4</dim>
				</port>
			</output>
		</layer>
		<layer id="344" name="conv1d_17/convolution/Conv2D/Transpose" type="Transpose" version="opset1">
			<input>
				<port id="0">
					<dim>1</dim>
					<dim>64</dim>
					<dim>1</dim>
					<dim>1120</dim>
				</port>
				<port id="1">
					<dim>4</dim>
				</port>
			</input>
			<output>
				<port id="2" precision="FP32">
					<dim>1</dim>
					<dim>1</dim>
					<dim>1120</dim>
					<dim>64</dim>
				</port>
			</output>
		</layer>
		<layer id="345" name="conv1d_17/convolution/Squeeze/Dims/Output_0/Data__const" type="Const" version="opset1">
			<data element_type="i64" offset="0" shape="1" size="8"/>
			<output>
				<port id="1" precision="I64">
					<dim>1</dim>
				</port>
			</output>
		</layer>
		<layer id="346" name="conv1d_17/convolution/Squeeze" type="Squeeze" version="opset1">
			<input>
				<port id="0">
					<dim>1</dim>
					<dim>1</dim>
					<dim>1120</dim>
					<dim>64</dim>
				</port>
				<port id="1">
					<dim>1</dim>
				</port>
			</input>
			<output>
				<port id="2" precision="FP32">
					<dim>1</dim>
					<dim>1120</dim>
					<dim>64</dim>
				</port>
			</output>
		</layer>
		<layer id="347" name="conv1d_17/Reshape/Output_0/Data__const" type="Const" version="opset1">
			<data element_type="f32" offset="2499668" shape="1,1,64" size="256"/>
			<output>
				<port id="1" precision="FP32">
					<dim>1</dim>
					<dim>1</dim>
					<dim>64</dim>
				</port>
			</output>
		</layer>
		<layer id="348" name="conv1d_17/add" type="Add" version="opset1">
			<input>
				<port id="0">
					<dim>1</dim>
					<dim>1120</dim>
					<dim>64</dim>
				</port>
				<port id="1">
					<dim>1</dim>
					<dim>1</dim>
					<dim>64</dim>
				</port>
			</input>
			<output>
				<port id="2" precision="FP32">
					<dim>1</dim>
					<dim>1120</dim>
					<dim>64</dim>
				</port>
			</output>
		</layer>
		<layer id="349" name="add_8/add" type="Add" version="opset1">
			<input>
				<port id="0">
					<dim>1</dim>
					<dim>1120</dim>
					<dim>64</dim>
				</port>
				<port id="1">
					<dim>1</dim>
					<dim>1120</dim>
					<dim>64</dim>
				</port>
			</input>
			<output>
				<port id="2" precision="FP32">
					<dim>1</dim>
					<dim>1120</dim>
					<dim>64</dim>
				</port>
			</output>
		</layer>
		<layer id="350" name="max_pooling1d_9/ExpandDims/dim/Output_0/Data__const" type="Const" version="opset1">
			<data element_type="i64" offset="2376" shape="1" size="8"/>
			<output>
				<port id="1" precision="I64">
					<dim>1</dim>
				</port>
			</output>
		</layer>
		<layer id="351" name="max_pooling1d_9/ExpandDims" type="Unsqueeze" version="opset1">
			<input>
				<port id="0">
					<dim>1</dim>
					<dim>1120</dim>
					<dim>64</dim>
				</port>
				<port id="1">
					<dim>1</dim>
				</port>
			</input>
			<output>
				<port id="2" precision="FP32">
					<dim>1</dim>
					<dim>1120</dim>
					<dim>1</dim>
					<dim>64</dim>
				</port>
			</output>
		</layer>
		<layer id="352" name="max_pooling1d_9/ExpandDims/Transpose/Cast_124988_const" type="Const" version="opset1">
			<data element_type="i64" offset="8" shape="4" size="32"/>
			<output>
				<port id="1" precision="I64">
					<dim>4</dim>
				</port>
			</output>
		</layer>
		<layer id="353" name="max_pooling1d_9/ExpandDims/Transpose" type="Transpose" version="opset1">
			<input>
				<port id="0">
					<dim>1</dim>
					<dim>1120</dim>
					<dim>1</dim>
					<dim>64</dim>
				</port>
				<port id="1">
					<dim>4</dim>
				</port>
			</input>
			<output>
				<port id="2" precision="FP32">
					<dim>1</dim>
					<dim>64</dim>
					<dim>1120</dim>
					<dim>1</dim>
				</port>
			</output>
		</layer>
		<layer id="354" name="max_pooling1d_9/MaxPool" type="MaxPool" version="opset1">
			<data auto_pad="valid" kernel="1,1" pads_begin="0,0" pads_end="0,0" strides="1,1"/>
			<input>
				<port id="0">
					<dim>1</dim>
					<dim>64</dim>
					<dim>1120</dim>
					<dim>1</dim>
				</port>
			</input>
			<output>
				<port id="1" precision="FP32">
					<dim>1</dim>
					<dim>64</dim>
					<dim>1120</dim>
					<dim>1</dim>
				</port>
			</output>
		</layer>
		<layer id="355" name="max_pooling1d_9/MaxPool/Transpose/Cast_124912_const" type="Const" version="opset1">
			<data element_type="i64" offset="2088" shape="4" size="32"/>
			<output>
				<port id="1" precision="I64">
					<dim>4</dim>
				</port>
			</output>
		</layer>
		<layer id="356" name="max_pooling1d_9/MaxPool/Transpose" type="Transpose" version="opset1">
			<input>
				<port id="0">
					<dim>1</dim>
					<dim>64</dim>
					<dim>1120</dim>
					<dim>1</dim>
				</port>
				<port id="1">
					<dim>4</dim>
				</port>
			</input>
			<output>
				<port id="2" precision="FP32">
					<dim>1</dim>
					<dim>1120</dim>
					<dim>1</dim>
					<dim>64</dim>
				</port>
			</output>
		</layer>
		<layer id="357" name="max_pooling1d_9/Squeeze/Dims/Output_0/Data__const" type="Const" version="opset1">
			<data element_type="i64" offset="2376" shape="1" size="8"/>
			<output>
				<port id="1" precision="I64">
					<dim>1</dim>
				</port>
			</output>
		</layer>
		<layer id="358" name="max_pooling1d_9/Squeeze" type="Squeeze" version="opset1">
			<input>
				<port id="0">
					<dim>1</dim>
					<dim>1120</dim>
					<dim>1</dim>
					<dim>64</dim>
				</port>
				<port id="1">
					<dim>1</dim>
				</port>
			</input>
			<output>
				<port id="2" precision="FP32">
					<dim>1</dim>
					<dim>1120</dim>
					<dim>64</dim>
				</port>
			</output>
		</layer>
		<layer id="359" name="2598/Output_0/Data_/copy_const" type="Const" version="opset1">
			<data element_type="f32" offset="528976" shape="1,1,1" size="4"/>
			<output>
				<port id="1" precision="FP32">
					<dim>1</dim>
					<dim>1</dim>
					<dim>1</dim>
				</port>
			</output>
		</layer>
		<layer id="360" name="lambda_2/zeros_like/mul_" type="Multiply" version="opset1">
			<input>
				<port id="0">
					<dim>1</dim>
					<dim>1120</dim>
					<dim>64</dim>
				</port>
				<port id="1">
					<dim>1</dim>
					<dim>1</dim>
					<dim>1</dim>
				</port>
			</input>
			<output>
				<port id="2" precision="FP32">
					<dim>1</dim>
					<dim>1120</dim>
					<dim>64</dim>
				</port>
			</output>
		</layer>
		<layer id="361" name="lambda_2/concat" type="Concat" version="opset1">
			<data axis="2"/>
			<input>
				<port id="0">
					<dim>1</dim>
					<dim>1120</dim>
					<dim>64</dim>
				</port>
				<port id="1">
					<dim>1</dim>
					<dim>1120</dim>
					<dim>64</dim>
				</port>
			</input>
			<output>
				<port id="2" precision="FP32">
					<dim>1</dim>
					<dim>1120</dim>
					<dim>128</dim>
				</port>
			</output>
		</layer>
		<layer id="362" name="batch_normalization_17/cond/batchnorm/mul/Output_0/Data_/copy_const" type="Const" version="opset1">
			<data element_type="f32" offset="2499924" shape="1,1,64" size="256"/>
			<output>
				<port id="1" precision="FP32">
					<dim>1</dim>
					<dim>1</dim>
					<dim>64</dim>
				</port>
			</output>
		</layer>
		<layer id="363" name="batch_normalization_17/cond/batchnorm/mul_1" type="Multiply" version="opset1">
			<input>
				<port id="0">
					<dim>1</dim>
					<dim>1120</dim>
					<dim>64</dim>
				</port>
				<port id="1">
					<dim>1</dim>
					<dim>1</dim>
					<dim>64</dim>
				</port>
			</input>
			<output>
				<port id="2" precision="FP32">
					<dim>1</dim>
					<dim>1120</dim>
					<dim>64</dim>
				</port>
			</output>
		</layer>
		<layer id="364" name="batch_normalization_17/cond/batchnorm/sub/Output_0/Data_/copy_const" type="Const" version="opset1">
			<data element_type="f32" offset="2500180" shape="1,1,64" size="256"/>
			<output>
				<port id="1" precision="FP32">
					<dim>1</dim>
					<dim>1</dim>
					<dim>64</dim>
				</port>
			</output>
		</layer>
		<layer id="365" name="batch_normalization_17/cond/batchnorm/add_1" type="Add" version="opset1">
			<input>
				<port id="0">
					<dim>1</dim>
					<dim>1120</dim>
					<dim>64</dim>
				</port>
				<port id="1">
					<dim>1</dim>
					<dim>1</dim>
					<dim>64</dim>
				</port>
			</input>
			<output>
				<port id="2" precision="FP32">
					<dim>1</dim>
					<dim>1120</dim>
					<dim>64</dim>
				</port>
			</output>
		</layer>
		<layer id="366" name="activation_17/Relu" type="ReLU" version="opset1">
			<input>
				<port id="0">
					<dim>1</dim>
					<dim>1120</dim>
					<dim>64</dim>
				</port>
			</input>
			<output>
				<port id="1" precision="FP32">
					<dim>1</dim>
					<dim>1120</dim>
					<dim>64</dim>
				</port>
			</output>
		</layer>
		<layer id="367" name="conv1d_18/convolution/ExpandDims/dim/Output_0/Data__const" type="Const" version="opset1">
			<data element_type="i64" offset="0" shape="1" size="8"/>
			<output>
				<port id="1" precision="I64">
					<dim>1</dim>
				</port>
			</output>
		</layer>
		<layer id="368" name="conv1d_18/convolution/ExpandDims" type="Unsqueeze" version="opset1">
			<input>
				<port id="0">
					<dim>1</dim>
					<dim>1120</dim>
					<dim>64</dim>
				</port>
				<port id="1">
					<dim>1</dim>
				</port>
			</input>
			<output>
				<port id="2" precision="FP32">
					<dim>1</dim>
					<dim>1</dim>
					<dim>1120</dim>
					<dim>64</dim>
				</port>
			</output>
		</layer>
		<layer id="369" name="conv1d_18/convolution/ExpandDims/Transpose/Cast_125010_const" type="Const" version="opset1">
			<data element_type="i64" offset="8" shape="4" size="32"/>
			<output>
				<port id="1" precision="I64">
					<dim>4</dim>
				</port>
			</output>
		</layer>
		<layer id="370" name="conv1d_18/convolution/ExpandDims/Transpose" type="Transpose" version="opset1">
			<input>
				<port id="0">
					<dim>1</dim>
					<dim>1</dim>
					<dim>1120</dim>
					<dim>64</dim>
				</port>
				<port id="1">
					<dim>4</dim>
				</port>
			</input>
			<output>
				<port id="2" precision="FP32">
					<dim>1</dim>
					<dim>64</dim>
					<dim>1</dim>
					<dim>1120</dim>
				</port>
			</output>
		</layer>
		<layer id="371" name="conv1d_18/convolution/ExpandDims_1/Output_0/Data__const" type="Const" version="opset1">
			<data element_type="f32" offset="2500436" shape="128,64,1,16" size="524288"/>
			<output>
				<port id="1" precision="FP32">
					<dim>128</dim>
					<dim>64</dim>
					<dim>1</dim>
					<dim>16</dim>
				</port>
			</output>
		</layer>
		<layer id="372" name="conv1d_18/convolution/Conv2D" type="Convolution" version="opset1">
			<data auto_pad="same_upper" dilations="1,1" output_padding="0,0" pads_begin="0,7" pads_end="0,8" strides="1,1"/>
			<input>
				<port id="0">
					<dim>1</dim>
					<dim>64</dim>
					<dim>1</dim>
					<dim>1120</dim>
				</port>
				<port id="1">
					<dim>128</dim>
					<dim>64</dim>
					<dim>1</dim>
					<dim>16</dim>
				</port>
			</input>
			<output>
				<port id="2" precision="FP32">
					<dim>1</dim>
					<dim>128</dim>
					<dim>1</dim>
					<dim>1120</dim>
				</port>
			</output>
		</layer>
		<layer id="373" name="conv1d_18/convolution/Conv2D/Transpose/Cast_124980_const" type="Const" version="opset1">
			<data element_type="i64" offset="2088" shape="4" size="32"/>
			<output>
				<port id="1" precision="I64">
					<dim>4</dim>
				</port>
			</output>
		</layer>
		<layer id="374" name="conv1d_18/convolution/Conv2D/Transpose" type="Transpose" version="opset1">
			<input>
				<port id="0">
					<dim>1</dim>
					<dim>128</dim>
					<dim>1</dim>
					<dim>1120</dim>
				</port>
				<port id="1">
					<dim>4</dim>
				</port>
			</input>
			<output>
				<port id="2" precision="FP32">
					<dim>1</dim>
					<dim>1</dim>
					<dim>1120</dim>
					<dim>128</dim>
				</port>
			</output>
		</layer>
		<layer id="375" name="conv1d_18/convolution/Squeeze/Dims/Output_0/Data__const" type="Const" version="opset1">
			<data element_type="i64" offset="0" shape="1" size="8"/>
			<output>
				<port id="1" precision="I64">
					<dim>1</dim>
				</port>
			</output>
		</layer>
		<layer id="376" name="conv1d_18/convolution/Squeeze" type="Squeeze" version="opset1">
			<input>
				<port id="0">
					<dim>1</dim>
					<dim>1</dim>
					<dim>1120</dim>
					<dim>128</dim>
				</port>
				<port id="1">
					<dim>1</dim>
				</port>
			</input>
			<output>
				<port id="2" precision="FP32">
					<dim>1</dim>
					<dim>1120</dim>
					<dim>128</dim>
				</port>
			</output>
		</layer>
		<layer id="377" name="data_mul_1312613130/copy_const" type="Const" version="opset1">
			<data element_type="f32" offset="3024724" shape="1,1,128" size="512"/>
			<output>
				<port id="1" precision="FP32">
					<dim>1</dim>
					<dim>1</dim>
					<dim>128</dim>
				</port>
			</output>
		</layer>
		<layer id="378" name="batch_normalization_18/cond/batchnorm/mul_1/Fused_Mul_" type="Multiply" version="opset1">
			<input>
				<port id="0">
					<dim>1</dim>
					<dim>1120</dim>
					<dim>128</dim>
				</port>
				<port id="1">
					<dim>1</dim>
					<dim>1</dim>
					<dim>128</dim>
				</port>
			</input>
			<output>
				<port id="2" precision="FP32">
					<dim>1</dim>
					<dim>1120</dim>
					<dim>128</dim>
				</port>
			</output>
		</layer>
		<layer id="379" name="data_add_1312713132_const" type="Const" version="opset1">
			<data element_type="f32" offset="3025236" shape="1,1,128" size="512"/>
			<output>
				<port id="1" precision="FP32">
					<dim>1</dim>
					<dim>1</dim>
					<dim>128</dim>
				</port>
			</output>
		</layer>
		<layer id="380" name="conv1d_18/add/Fused_Add_" type="Add" version="opset1">
			<input>
				<port id="0">
					<dim>1</dim>
					<dim>1120</dim>
					<dim>128</dim>
				</port>
				<port id="1">
					<dim>1</dim>
					<dim>1</dim>
					<dim>128</dim>
				</port>
			</input>
			<output>
				<port id="2" precision="FP32">
					<dim>1</dim>
					<dim>1120</dim>
					<dim>128</dim>
				</port>
			</output>
		</layer>
		<layer id="381" name="activation_18/Relu" type="ReLU" version="opset1">
			<input>
				<port id="0">
					<dim>1</dim>
					<dim>1120</dim>
					<dim>128</dim>
				</port>
			</input>
			<output>
				<port id="1" precision="FP32">
					<dim>1</dim>
					<dim>1120</dim>
					<dim>128</dim>
				</port>
			</output>
		</layer>
		<layer id="382" name="conv1d_19/convolution/ExpandDims/dim/Output_0/Data__const" type="Const" version="opset1">
			<data element_type="i64" offset="0" shape="1" size="8"/>
			<output>
				<port id="1" precision="I64">
					<dim>1</dim>
				</port>
			</output>
		</layer>
		<layer id="383" name="conv1d_19/convolution/ExpandDims" type="Unsqueeze" version="opset1">
			<input>
				<port id="0">
					<dim>1</dim>
					<dim>1120</dim>
					<dim>128</dim>
				</port>
				<port id="1">
					<dim>1</dim>
				</port>
			</input>
			<output>
				<port id="2" precision="FP32">
					<dim>1</dim>
					<dim>1</dim>
					<dim>1120</dim>
					<dim>128</dim>
				</port>
			</output>
		</layer>
		<layer id="384" name="conv1d_19/convolution/ExpandDims/Transpose/Cast_124996_const" type="Const" version="opset1">
			<data element_type="i64" offset="8" shape="4" size="32"/>
			<output>
				<port id="1" precision="I64">
					<dim>4</dim>
				</port>
			</output>
		</layer>
		<layer id="385" name="conv1d_19/convolution/ExpandDims/Transpose" type="Transpose" version="opset1">
			<input>
				<port id="0">
					<dim>1</dim>
					<dim>1</dim>
					<dim>1120</dim>
					<dim>128</dim>
				</port>
				<port id="1">
					<dim>4</dim>
				</port>
			</input>
			<output>
				<port id="2" precision="FP32">
					<dim>1</dim>
					<dim>128</dim>
					<dim>1</dim>
					<dim>1120</dim>
				</port>
			</output>
		</layer>
		<layer id="386" name="conv1d_19/convolution/ExpandDims_1/Output_0/Data__const" type="Const" version="opset1">
			<data element_type="f32" offset="3025748" shape="128,128,1,16" size="1048576"/>
			<output>
				<port id="1" precision="FP32">
					<dim>128</dim>
					<dim>128</dim>
					<dim>1</dim>
					<dim>16</dim>
				</port>
			</output>
		</layer>
		<layer id="387" name="conv1d_19/convolution/Conv2D" type="Convolution" version="opset1">
			<data auto_pad="same_upper" dilations="1,1" output_padding="0,0" pads_begin="0,7" pads_end="0,8" strides="1,1"/>
			<input>
				<port id="0">
					<dim>1</dim>
					<dim>128</dim>
					<dim>1</dim>
					<dim>1120</dim>
				</port>
				<port id="1">
					<dim>128</dim>
					<dim>128</dim>
					<dim>1</dim>
					<dim>16</dim>
				</port>
			</input>
			<output>
				<port id="2" precision="FP32">
					<dim>1</dim>
					<dim>128</dim>
					<dim>1</dim>
					<dim>1120</dim>
				</port>
			</output>
		</layer>
		<layer id="388" name="conv1d_19/convolution/Conv2D/Transpose/Cast_125028_const" type="Const" version="opset1">
			<data element_type="i64" offset="2088" shape="4" size="32"/>
			<output>
				<port id="1" precision="I64">
					<dim>4</dim>
				</port>
			</output>
		</layer>
		<layer id="389" name="conv1d_19/convolution/Conv2D/Transpose" type="Transpose" version="opset1">
			<input>
				<port id="0">
					<dim>1</dim>
					<dim>128</dim>
					<dim>1</dim>
					<dim>1120</dim>
				</port>
				<port id="1">
					<dim>4</dim>
				</port>
			</input>
			<output>
				<port id="2" precision="FP32">
					<dim>1</dim>
					<dim>1</dim>
					<dim>1120</dim>
					<dim>128</dim>
				</port>
			</output>
		</layer>
		<layer id="390" name="conv1d_19/convolution/Squeeze/Dims/Output_0/Data__const" type="Const" version="opset1">
			<data element_type="i64" offset="0" shape="1" size="8"/>
			<output>
				<port id="1" precision="I64">
					<dim>1</dim>
				</port>
			</output>
		</layer>
		<layer id="391" name="conv1d_19/convolution/Squeeze" type="Squeeze" version="opset1">
			<input>
				<port id="0">
					<dim>1</dim>
					<dim>1</dim>
					<dim>1120</dim>
					<dim>128</dim>
				</port>
				<port id="1">
					<dim>1</dim>
				</port>
			</input>
			<output>
				<port id="2" precision="FP32">
					<dim>1</dim>
					<dim>1120</dim>
					<dim>128</dim>
				</port>
			</output>
		</layer>
		<layer id="392" name="conv1d_19/Reshape/Output_0/Data__const" type="Const" version="opset1">
			<data element_type="f32" offset="4074324" shape="1,1,128" size="512"/>
			<output>
				<port id="1" precision="FP32">
					<dim>1</dim>
					<dim>1</dim>
					<dim>128</dim>
				</port>
			</output>
		</layer>
		<layer id="393" name="conv1d_19/add" type="Add" version="opset1">
			<input>
				<port id="0">
					<dim>1</dim>
					<dim>1120</dim>
					<dim>128</dim>
				</port>
				<port id="1">
					<dim>1</dim>
					<dim>1</dim>
					<dim>128</dim>
				</port>
			</input>
			<output>
				<port id="2" precision="FP32">
					<dim>1</dim>
					<dim>1120</dim>
					<dim>128</dim>
				</port>
			</output>
		</layer>
		<layer id="394" name="add_9/add" type="Add" version="opset1">
			<input>
				<port id="0">
					<dim>1</dim>
					<dim>1120</dim>
					<dim>128</dim>
				</port>
				<port id="1">
					<dim>1</dim>
					<dim>1120</dim>
					<dim>128</dim>
				</port>
			</input>
			<output>
				<port id="2" precision="FP32">
					<dim>1</dim>
					<dim>1120</dim>
					<dim>128</dim>
				</port>
			</output>
		</layer>
		<layer id="395" name="max_pooling1d_10/ExpandDims/dim/Output_0/Data__const" type="Const" version="opset1">
			<data element_type="i64" offset="2376" shape="1" size="8"/>
			<output>
				<port id="1" precision="I64">
					<dim>1</dim>
				</port>
			</output>
		</layer>
		<layer id="396" name="max_pooling1d_10/ExpandDims" type="Unsqueeze" version="opset1">
			<input>
				<port id="0">
					<dim>1</dim>
					<dim>1120</dim>
					<dim>128</dim>
				</port>
				<port id="1">
					<dim>1</dim>
				</port>
			</input>
			<output>
				<port id="2" precision="FP32">
					<dim>1</dim>
					<dim>1120</dim>
					<dim>1</dim>
					<dim>128</dim>
				</port>
			</output>
		</layer>
		<layer id="397" name="max_pooling1d_10/ExpandDims/Transpose/Cast_124904_const" type="Const" version="opset1">
			<data element_type="i64" offset="8" shape="4" size="32"/>
			<output>
				<port id="1" precision="I64">
					<dim>4</dim>
				</port>
			</output>
		</layer>
		<layer id="398" name="max_pooling1d_10/ExpandDims/Transpose" type="Transpose" version="opset1">
			<input>
				<port id="0">
					<dim>1</dim>
					<dim>1120</dim>
					<dim>1</dim>
					<dim>128</dim>
				</port>
				<port id="1">
					<dim>4</dim>
				</port>
			</input>
			<output>
				<port id="2" precision="FP32">
					<dim>1</dim>
					<dim>128</dim>
					<dim>1120</dim>
					<dim>1</dim>
				</port>
			</output>
		</layer>
		<layer id="399" name="max_pooling1d_10/MaxPool" type="MaxPool" version="opset1">
			<data auto_pad="valid" kernel="2,1" pads_begin="0,0" pads_end="0,0" strides="2,1"/>
			<input>
				<port id="0">
					<dim>1</dim>
					<dim>128</dim>
					<dim>1120</dim>
					<dim>1</dim>
				</port>
			</input>
			<output>
				<port id="1" precision="FP32">
					<dim>1</dim>
					<dim>128</dim>
					<dim>560</dim>
					<dim>1</dim>
				</port>
			</output>
		</layer>
		<layer id="400" name="max_pooling1d_10/MaxPool/Transpose/Cast_124952_const" type="Const" version="opset1">
			<data element_type="i64" offset="2088" shape="4" size="32"/>
			<output>
				<port id="1" precision="I64">
					<dim>4</dim>
				</port>
			</output>
		</layer>
		<layer id="401" name="max_pooling1d_10/MaxPool/Transpose" type="Transpose" version="opset1">
			<input>
				<port id="0">
					<dim>1</dim>
					<dim>128</dim>
					<dim>560</dim>
					<dim>1</dim>
				</port>
				<port id="1">
					<dim>4</dim>
				</port>
			</input>
			<output>
				<port id="2" precision="FP32">
					<dim>1</dim>
					<dim>560</dim>
					<dim>1</dim>
					<dim>128</dim>
				</port>
			</output>
		</layer>
		<layer id="402" name="max_pooling1d_10/Squeeze/Dims/Output_0/Data__const" type="Const" version="opset1">
			<data element_type="i64" offset="2376" shape="1" size="8"/>
			<output>
				<port id="1" precision="I64">
					<dim>1</dim>
				</port>
			</output>
		</layer>
		<layer id="403" name="max_pooling1d_10/Squeeze" type="Squeeze" version="opset1">
			<input>
				<port id="0">
					<dim>1</dim>
					<dim>560</dim>
					<dim>1</dim>
					<dim>128</dim>
				</port>
				<port id="1">
					<dim>1</dim>
				</port>
			</input>
			<output>
				<port id="2" precision="FP32">
					<dim>1</dim>
					<dim>560</dim>
					<dim>128</dim>
				</port>
			</output>
		</layer>
		<layer id="404" name="batch_normalization_19/cond/batchnorm/mul/Output_0/Data_/copy_const" type="Const" version="opset1">
			<data element_type="f32" offset="4074836" shape="1,1,128" size="512"/>
			<output>
				<port id="1" precision="FP32">
					<dim>1</dim>
					<dim>1</dim>
					<dim>128</dim>
				</port>
			</output>
		</layer>
		<layer id="405" name="batch_normalization_19/cond/batchnorm/mul_1" type="Multiply" version="opset1">
			<input>
				<port id="0">
					<dim>1</dim>
					<dim>1120</dim>
					<dim>128</dim>
				</port>
				<port id="1">
					<dim>1</dim>
					<dim>1</dim>
					<dim>128</dim>
				</port>
			</input>
			<output>
				<port id="2" precision="FP32">
					<dim>1</dim>
					<dim>1120</dim>
					<dim>128</dim>
				</port>
			</output>
		</layer>
		<layer id="406" name="batch_normalization_19/cond/batchnorm/sub/Output_0/Data_/copy_const" type="Const" version="opset1">
			<data element_type="f32" offset="4075348" shape="1,1,128" size="512"/>
			<output>
				<port id="1" precision="FP32">
					<dim>1</dim>
					<dim>1</dim>
					<dim>128</dim>
				</port>
			</output>
		</layer>
		<layer id="407" name="batch_normalization_19/cond/batchnorm/add_1" type="Add" version="opset1">
			<input>
				<port id="0">
					<dim>1</dim>
					<dim>1120</dim>
					<dim>128</dim>
				</port>
				<port id="1">
					<dim>1</dim>
					<dim>1</dim>
					<dim>128</dim>
				</port>
			</input>
			<output>
				<port id="2" precision="FP32">
					<dim>1</dim>
					<dim>1120</dim>
					<dim>128</dim>
				</port>
…
		<edge from-layer="11" from-port="1" to-layer="12" to-port="1"/>
		<edge from-layer="12" from-port="2" to-layer="14" to-port="0"/>
		<edge from-layer="13" from-port="1" to-layer="14" to-port="1"/>
		<edge from-layer="14" from-port="2" to-layer="15" to-port="0"/>
		<edge from-layer="15" from-port="1" to-layer="17" to-port="0"/>
		<edge from-layer="16" from-port="1" to-layer="17" to-port="1"/>
		<edge from-layer="17" from-port="2" to-layer="19" to-port="0"/>
		<edge from-layer="18" from-port="1" to-layer="19" to-port="1"/>
		<edge from-layer="19" from-port="2" to-layer="20" to-port="0"/>
		<edge from-layer="20" from-port="1" to-layer="22" to-port="0"/>
		<edge from-layer="21" from-port="1" to-layer="22" to-port="1"/>
		<edge from-layer="22" from-port="2" to-layer="24" to-port="0"/>
		<edge from-layer="23" from-port="1" to-layer="24" to-port="1"/>
		<edge from-layer="15" from-port="1" to-layer="26" to-port="0"/>
		<edge from-layer="25" from-port="1" to-layer="26" to-port="1"/>
		<edge from-layer="26" from-port="2" to-layer="28" to-port="0"/>
		<edge from-layer="27" from-port="1" to-layer="28" to-port="1"/>
		<edge from-layer="28" from-port="2" to-layer="30" to-port="0"/>
		<edge from-layer="29" from-port="1" to-layer="30" to-port="1"/>
		<edge from-layer="30" from-port="2" to-layer="32" to-port="0"/>
		<edge from-layer="31" from-port="1" to-layer="32" to-port="1"/>
		<edge from-layer="32" from-port="2" to-layer="34" to-port="0"/>
		<edge from-layer="33" from-port="1" to-layer="34" to-port="1"/>
		<edge from-layer="34" from-port="2" to-layer="36" to-port="0"/>
		<edge from-layer="35" from-port="1" to-layer="36" to-port="1"/>
		<edge from-layer="36" from-port="2" to-layer="38" to-port="0"/>
		<edge from-layer="37" from-port="1" to-layer="38" to-port="1"/>
		<edge from-layer="38" from-port="2" to-layer="39" to-port="0"/>
		<edge from-layer="39" from-port="1" to-layer="41" to-port="0"/>
		<edge from-layer="40" from-port="1" to-layer="41" to-port="1"/>
		<edge from-layer="41" from-port="2" to-layer="43" to-port="0"/>
		<edge from-layer="42" from-port="1" to-layer="43" to-port="1"/>
		<edge from-layer="43" from-port="2" to-layer="45" to-port="0"/>
		<edge from-layer="44" from-port="1" to-layer="45" to-port="1"/>
		<edge from-layer="45" from-port="2" to-layer="47" to-port="0"/>
		<edge from-layer="46" from-port="1" to-layer="47" to-port="1"/>
		<edge from-layer="47" from-port="2" to-layer="49" to-port="0"/>
		<edge from-layer="48" from-port="1" to-layer="49" to-port="1"/>
		<edge from-layer="49" from-port="2" to-layer="51" to-port="0"/>
		<edge from-layer="50" from-port="1" to-layer="51" to-port="1"/>
		<edge from-layer="24" from-port="2" to-layer="52" to-port="0"/>
		<edge from-layer="51" from-port="2" to-layer="52" to-port="1"/>
		<edge from-layer="52" from-port="2" to-layer="54" to-port="0"/>
		<edge from-layer="53" from-port="1" to-layer="54" to-port="1"/>
		<edge from-layer="54" from-port="2" to-layer="56" to-port="0"/>
		<edge from-layer="55" from-port="1" to-layer="56" to-port="1"/>
		<edge from-layer="56" from-port="2" to-layer="57" to-port="0"/>
		<edge from-layer="57" from-port="1" to-layer="59" to-port="0"/>
		<edge from-layer="58" from-port="1" to-layer="59" to-port="1"/>
		<edge from-layer="59" from-port="2" to-layer="61" to-port="0"/>
		<edge from-layer="60" from-port="1" to-layer="61" to-port="1"/>
		<edge from-layer="52" from-port="2" to-layer="63" to-port="0"/>
		<edge from-layer="62" from-port="1" to-layer="63" to-port="1"/>
		<edge from-layer="63" from-port="2" to-layer="65" to-port="0"/>
		<edge from-layer="64" from-port="1" to-layer="65" to-port="1"/>
		<edge from-layer="65" from-port="2" to-layer="66" to-port="0"/>
		<edge from-layer="66" from-port="1" to-layer="68" to-port="0"/>
		<edge from-layer="67" from-port="1" to-layer="68" to-port="1"/>
		<edge from-layer="68" from-port="2" to-layer="70" to-port="0"/>
		<edge from-layer="69" from-port="1" to-layer="70" to-port="1"/>
		<edge from-layer="70" from-port="2" to-layer="72" to-port="0"/>
		<edge from-layer="71" from-port="1" to-layer="72" to-port="1"/>
		<edge from-layer="72" from-port="2" to-layer="74" to-port="0"/>
		<edge from-layer="73" from-port="1" to-layer="74" to-port="1"/>
		<edge from-layer="74" from-port="2" to-layer="76" to-port="0"/>
		<edge from-layer="75" from-port="1" to-layer="76" to-port="1"/>
		<edge from-layer="76" from-port="2" to-layer="78" to-port="0"/>
		<edge from-layer="77" from-port="1" to-layer="78" to-port="1"/>
		<edge from-layer="78" from-port="2" to-layer="80" to-port="0"/>
		<edge from-layer="79" from-port="1" to-layer="80" to-port="1"/>
		<edge from-layer="80" from-port="2" to-layer="81" to-port="0"/>
		<edge from-layer="81" from-port="1" to-layer="83" to-port="0"/>
		<edge from-layer="82" from-port="1" to-layer="83" to-port="1"/>
		<edge from-layer="83" from-port="2" to-layer="85" to-port="0"/>
		<edge from-layer="84" from-port="1" to-layer="85" to-port="1"/>
		<edge from-layer="85" from-port="2" to-layer="87" to-port="0"/>
		<edge from-layer="86" from-port="1" to-layer="87" to-port="1"/>
		<edge from-layer="87" from-port="2" to-layer="89" to-port="0"/>
		<edge from-layer="88" from-port="1" to-layer="89" to-port="1"/>
		<edge from-layer="89" from-port="2" to-layer="91" to-port="0"/>
		<edge from-layer="90" from-port="1" to-layer="91" to-port="1"/>
		<edge from-layer="91" from-port="2" to-layer="93" to-port="0"/>
		<edge from-layer="92" from-port="1" to-layer="93" to-port="1"/>
		<edge from-layer="61" from-port="2" to-layer="94" to-port="0"/>
		<edge from-layer="93" from-port="2" to-layer="94" to-port="1"/>
		<edge from-layer="94" from-port="2" to-layer="96" to-port="0"/>
		<edge from-layer="95" from-port="1" to-layer="96" to-port="1"/>
		<edge from-layer="96" from-port="2" to-layer="98" to-port="0"/>
		<edge from-layer="97" from-port="1" to-layer="98" to-port="1"/>
		<edge from-layer="98" from-port="2" to-layer="99" to-port="0"/>
		<edge from-layer="99" from-port="1" to-layer="101" to-port="0"/>
		<edge from-layer="100" from-port="1" to-layer="101" to-port="1"/>
		<edge from-layer="101" from-port="2" to-layer="103" to-port="0"/>
		<edge from-layer="102" from-port="1" to-layer="103" to-port="1"/>
		<edge from-layer="94" from-port="2" to-layer="105" to-port="0"/>
		<edge from-layer="104" from-port="1" to-layer="105" to-port="1"/>
		<edge from-layer="105" from-port="2" to-layer="107" to-port="0"/>
		<edge from-layer="106" from-port="1" to-layer="107" to-port="1"/>
		<edge from-layer="107" from-port="2" to-layer="108" to-port="0"/>
		<edge from-layer="108" from-port="1" to-layer="110" to-port="0"/>
		<edge from-layer="109" from-port="1" to-layer="110" to-port="1"/>
		<edge from-layer="110" from-port="2" to-layer="112" to-port="0"/>
		<edge from-layer="111" from-port="1" to-layer="112" to-port="1"/>
		<edge from-layer="112" from-port="2" to-layer="114" to-port="0"/>
		<edge from-layer="113" from-port="1" to-layer="114" to-port="1"/>
		<edge from-layer="114" from-port="2" to-layer="116" to-port="0"/>
		<edge from-layer="115" from-port="1" to-layer="116" to-port="1"/>
		<edge from-layer="116" from-port="2" to-layer="118" to-port="0"/>
		<edge from-layer="117" from-port="1" to-layer="118" to-port="1"/>
		<edge from-layer="118" from-port="2" to-layer="120" to-port="0"/>
		<edge from-layer="119" from-port="1" to-layer="120" to-port="1"/>
		<edge from-layer="120" from-port="2" to-layer="122" to-port="0"/>
		<edge from-layer="121" from-port="1" to-layer="122" to-port="1"/>
		<edge from-layer="122" from-port="2" to-layer="123" to-port="0"/>
		<edge from-layer="123" from-port="1" to-layer="125" to-port="0"/>
		<edge from-layer="124" from-port="1" to-layer="125" to-port="1"/>
		<edge from-layer="125" from-port="2" to-layer="127" to-port="0"/>
		<edge from-layer="126" from-port="1" to-layer="127" to-port="1"/>
		<edge from-layer="127" from-port="2" to-layer="129" to-port="0"/>
		<edge from-layer="128" from-port="1" to-layer="129" to-port="1"/>
		<edge from-layer="129" from-port="2" to-layer="131" to-port="0"/>
		<edge from-layer="130" from-port="1" to-layer="131" to-port="1"/>
		<edge from-layer="131" from-port="2" to-layer="133" to-port="0"/>
		<edge from-layer="132" from-port="1" to-layer="133" to-port="1"/>
		<edge from-layer="133" from-port="2" to-layer="135" to-port="0"/>
		<edge from-layer="134" from-port="1" to-layer="135" to-port="1"/>
		<edge from-layer="103" from-port="2" to-layer="136" to-port="0"/>
		<edge from-layer="135" from-port="2" to-layer="136" to-port="1"/>
		<edge from-layer="136" from-port="2" to-layer="138" to-port="0"/>
		<edge from-layer="137" from-port="1" to-layer="138" to-port="1"/>
		<edge from-layer="138" from-port="2" to-layer="140" to-port="0"/>
		<edge from-layer="139" from-port="1" to-layer="140" to-port="1"/>
		<edge from-layer="140" from-port="2" to-layer="141" to-port="0"/>
		<edge from-layer="141" from-port="1" to-layer="143" to-port="0"/>
		<edge from-layer="142" from-port="1" to-layer="143" to-port="1"/>
		<edge from-layer="143" from-port="2" to-layer="145" to-port="0"/>
		<edge from-layer="144" from-port="1" to-layer="145" to-port="1"/>
		<edge from-layer="136" from-port="2" to-layer="147" to-port="0"/>
		<edge from-layer="146" from-port="1" to-layer="147" to-port="1"/>
		<edge from-layer="147" from-port="2" to-layer="149" to-port="0"/>
		<edge from-layer="148" from-port="1" to-layer="149" to-port="1"/>
		<edge from-layer="149" from-port="2" to-layer="150" to-port="0"/>
		<edge from-layer="150" from-port="1" to-layer="152" to-port="0"/>
		<edge from-layer="151" from-port="1" to-layer="152" to-port="1"/>
		<edge from-layer="152" from-port="2" to-layer="154" to-port="0"/>
		<edge from-layer="153" from-port="1" to-layer="154" to-port="1"/>
		<edge from-layer="154" from-port="2" to-layer="156" to-port="0"/>
		<edge from-layer="155" from-port="1" to-layer="156" to-port="1"/>
		<edge from-layer="156" from-port="2" to-layer="158" to-port="0"/>
		<edge from-layer="157" from-port="1" to-layer="158" to-port="1"/>
		<edge from-layer="158" from-port="2" to-layer="160" to-port="0"/>
		<edge from-layer="159" from-port="1" to-layer="160" to-port="1"/>
		<edge from-layer="160" from-port="2" to-layer="162" to-port="0"/>
		<edge from-layer="161" from-port="1" to-layer="162" to-port="1"/>
		<edge from-layer="162" from-port="2" to-layer="164" to-port="0"/>
		<edge from-layer="163" from-port="1" to-layer="164" to-port="1"/>
		<edge from-layer="164" from-port="2" to-layer="165" to-port="0"/>
		<edge from-layer="165" from-port="1" to-layer="167" to-port="0"/>
		<edge from-layer="166" from-port="1" to-layer="167" to-port="1"/>
		<edge from-layer="167" from-port="2" to-layer="169" to-port="0"/>
		<edge from-layer="168" from-port="1" to-layer="169" to-port="1"/>
		<edge from-layer="169" from-port="2" to-layer="171" to-port="0"/>
		<edge from-layer="170" from-port="1" to-layer="171" to-port="1"/>
		<edge from-layer="171" from-port="2" to-layer="173" to-port="0"/>
		<edge from-layer="172" from-port="1" to-layer="173" to-port="1"/>
		<edge from-layer="173" from-port="2" to-layer="175" to-port="0"/>
		<edge from-layer="174" from-port="1" to-layer="175" to-port="1"/>
		<edge from-layer="175" from-port="2" to-layer="177" to-port="0"/>
		<edge from-layer="176" from-port="1" to-layer="177" to-port="1"/>
		<edge from-layer="145" from-port="2" to-layer="178" to-port="0"/>
		<edge from-layer="177" from-port="2" to-layer="178" to-port="1"/>
		<edge from-layer="178" from-port="2" to-layer="180" to-port="0"/>
		<edge from-layer="179" from-port="1" to-layer="180" to-port="1"/>
		<edge from-layer="180" from-port="2" to-layer="182" to-port="0"/>
		<edge from-layer="181" from-port="1" to-layer="182" to-port="1"/>
		<edge from-layer="182" from-port="2" to-layer="183" to-port="0"/>
		<edge from-layer="183" from-port="1" to-layer="185" to-port="0"/>
		<edge from-layer="184" from-port="1" to-layer="185" to-port="1"/>
		<edge from-layer="185" from-port="2" to-layer="187" to-port="0"/>
		<edge from-layer="186" from-port="1" to-layer="187" to-port="1"/>
		<edge from-layer="187" from-port="2" to-layer="189" to-port="0"/>
		<edge from-layer="188" from-port="1" to-layer="189" to-port="1"/>
		<edge from-layer="187" from-port="2" to-layer="190" to-port="0"/>
		<edge from-layer="189" from-port="2" to-layer="190" to-port="1"/>
		<edge from-layer="178" from-port="2" to-layer="192" to-port="0"/>
		<edge from-layer="191" from-port="1" to-layer="192" to-port="1"/>
		<edge from-layer="192" from-port="2" to-layer="194" to-port="0"/>
		<edge from-layer="193" from-port="1" to-layer="194" to-port="1"/>
		<edge from-layer="194" from-port="2" to-layer="195" to-port="0"/>
		<edge from-layer="195" from-port="1" to-layer="197" to-port="0"/>
		<edge from-layer="196" from-port="1" to-layer="197" to-port="1"/>
		<edge from-layer="197" from-port="2" to-layer="199" to-port="0"/>
		<edge from-layer="198" from-port="1" to-layer="199" to-port="1"/>
		<edge from-layer="199" from-port="2" to-layer="201" to-port="0"/>
		<edge from-layer="200" from-port="1" to-layer="201" to-port="1"/>
		<edge from-layer="201" from-port="2" to-layer="203" to-port="0"/>
		<edge from-layer="202" from-port="1" to-layer="203" to-port="1"/>
		<edge from-layer="203" from-port="2" to-layer="205" to-port="0"/>
		<edge from-layer="204" from-port="1" to-layer="205" to-port="1"/>
		<edge from-layer="205" from-port="2" to-layer="207" to-port="0"/>
		<edge from-layer="206" from-port="1" to-layer="207" to-port="1"/>
		<edge from-layer="207" from-port="2" to-layer="209" to-port="0"/>
		<edge from-layer="208" from-port="1" to-layer="209" to-port="1"/>
		<edge from-layer="209" from-port="2" to-layer="210" to-port="0"/>
		<edge from-layer="210" from-port="1" to-layer="212" to-port="0"/>
		<edge from-layer="211" from-port="1" to-layer="212" to-port="1"/>
		<edge from-layer="212" from-port="2" to-layer="214" to-port="0"/>
		<edge from-layer="213" from-port="1" to-layer="214" to-port="1"/>
		<edge from-layer="214" from-port="2" to-layer="216" to-port="0"/>
		<edge from-layer="215" from-port="1" to-layer="216" to-port="1"/>
		<edge from-layer="216" from-port="2" to-layer="218" to-port="0"/>
		<edge from-layer="217" from-port="1" to-layer="218" to-port="1"/>
		<edge from-layer="218" from-port="2" to-layer="220" to-port="0"/>
		<edge from-layer="219" from-port="1" to-layer="220" to-port="1"/>
		<edge from-layer="220" from-port="2" to-layer="222" to-port="0"/>
		<edge from-layer="221" from-port="1" to-layer="222" to-port="1"/>
		<edge from-layer="190" from-port="2" to-layer="223" to-port="0"/>
		<edge from-layer="222" from-port="2" to-layer="223" to-port="1"/>
		<edge from-layer="223" from-port="2" to-layer="225" to-port="0"/>
		<edge from-layer="224" from-port="1" to-layer="225" to-port="1"/>
		<edge from-layer="225" from-port="2" to-layer="227" to-port="0"/>
		<edge from-layer="226" from-port="1" to-layer="227" to-port="1"/>
		<edge from-layer="227" from-port="2" to-layer="228" to-port="0"/>
		<edge from-layer="228" from-port="1" to-layer="230" to-port="0"/>
		<edge from-layer="229" from-port="1" to-layer="230" to-port="1"/>
		<edge from-layer="230" from-port="2" to-layer="232" to-port="0"/>
		<edge from-layer="231" from-port="1" to-layer="232" to-port="1"/>
		<edge from-layer="223" from-port="2" to-layer="234" to-port="0"/>
		<edge from-layer="233" from-port="1" to-layer="234" to-port="1"/>
		<edge from-layer="234" from-port="2" to-layer="236" to-port="0"/>
		<edge from-layer="235" from-port="1" to-layer="236" to-port="1"/>
		<edge from-layer="236" from-port="2" to-layer="237" to-port="0"/>
		<edge from-layer="237" from-port="1" to-layer="239" to-port="0"/>
		<edge from-layer="238" from-port="1" to-layer="239" to-port="1"/>
		<edge from-layer="239" from-port="2" to-layer="241" to-port="0"/>
		<edge from-layer="240" from-port="1" to-layer="241" to-port="1"/>
		<edge from-layer="241" from-port="2" to-layer="243" to-port="0"/>
		<edge from-layer="242" from-port="1" to-layer="243" to-port="1"/>
		<edge from-layer="243" from-port="2" to-layer="245" to-port="0"/>
		<edge from-layer="244" from-port="1" to-layer="245" to-port="1"/>
		<edge from-layer="245" from-port="2" to-layer="247" to-port="0"/>
		<edge from-layer="246" from-port="1" to-layer="247" to-port="1"/>
		<edge from-layer="247" from-port="2" to-layer="249" to-port="0"/>
		<edge from-layer="248" from-port="1" to-layer="249" to-port="1"/>
		<edge from-layer="249" from-port="2" to-layer="251" to-port="0"/>
		<edge from-layer="250" from-port="1" to-layer="251" to-port="1"/>
		<edge from-layer="251" from-port="2" to-layer="252" to-port="0"/>
		<edge from-layer="252" from-port="1" to-layer="254" to-port="0"/>
		<edge from-layer="253" from-port="1" to-layer="254" to-port="1"/>
		<edge from-layer="254" from-port="2" to-layer="256" to-port="0"/>
		<edge from-layer="255" from-port="1" to-layer="256" to-port="1"/>
		<edge from-layer="256" from-port="2" to-layer="258" to-port="0"/>
		<edge from-layer="257" from-port="1" to-layer="258" to-port="1"/>
		<edge from-layer="258" from-port="2" to-layer="260" to-port="0"/>
		<edge from-layer="259" from-port="1" to-layer="260" to-port="1"/>
		<edge from-layer="260" from-port="2" to-layer="262" to-port="0"/>
		<edge from-layer="261" from-port="1" to-layer="262" to-port="1"/>
		<edge from-layer="262" from-port="2" to-layer="264" to-port="0"/>
		<edge from-layer="263" from-port="1" to-layer="264" to-port="1"/>
		<edge from-layer="232" from-port="2" to-layer="265" to-port="0"/>
		<edge from-layer="264" from-port="2" to-layer="265" to-port="1"/>
		<edge from-layer="265" from-port="2" to-layer="267" to-port="0"/>
		<edge from-layer="266" from-port="1" to-layer="267" to-port="1"/>
		<edge from-layer="267" from-port="2" to-layer="269" to-port="0"/>
		<edge from-layer="268" from-port="1" to-layer="269" to-port="1"/>
		<edge from-layer="269" from-port="2" to-layer="270" to-port="0"/>
		<edge from-layer="270" from-port="1" to-layer="272" to-port="0"/>
		<edge from-layer="271" from-port="1" to-layer="272" to-port="1"/>
		<edge from-layer="272" from-port="2" to-layer="274" to-port="0"/>
		<edge from-layer="273" from-port="1" to-layer="274" to-port="1"/>
		<edge from-layer="265" from-port="2" to-layer="276" to-port="0"/>
		<edge from-layer="275" from-port="1" to-layer="276" to-port="1"/>
		<edge from-layer="276" from-port="2" to-layer="278" to-port="0"/>
		<edge from-layer="277" from-port="1" to-layer="278" to-port="1"/>
		<edge from-layer="278" from-port="2" to-layer="279" to-port="0"/>
		<edge from-layer="279" from-port="1" to-layer="281" to-port="0"/>
		<edge from-layer="280" from-port="1" to-layer="281" to-port="1"/>
		<edge from-layer="281" from-port="2" to-layer="283" to-port="0"/>
		<edge from-layer="282" from-port="1" to-layer="283" to-port="1"/>
		<edge from-layer="283" from-port="2" to-layer="285" to-port="0"/>
		<edge from-layer="284" from-port="1" to-layer="285" to-port="1"/>
		<edge from-layer="285" from-port="2" to-layer="287" to-port="0"/>
		<edge from-layer="286" from-port="1" to-layer="287" to-port="1"/>
		<edge from-layer="287" from-port="2" to-layer="289" to-port="0"/>
		<edge from-layer="288" from-port="1" to-layer="289" to-port="1"/>
		<edge from-layer="289" from-port="2" to-layer="291" to-port="0"/>
		<edge from-layer="290" from-port="1" to-layer="291" to-port="1"/>
		<edge from-layer="291" from-port="2" to-layer="293" to-port="0"/>
		<edge from-layer="292" from-port="1" to-layer="293" to-port="1"/>
		<edge from-layer="293" from-port="2" to-layer="294" to-port="0"/>
		<edge from-layer="294" from-port="1" to-layer="296" to-port="0"/>
		<edge from-layer="295" from-port="1" to-layer="296" to-port="1"/>
		<edge from-layer="296" from-port="2" to-layer="298" to-port="0"/>
		<edge from-layer="297" from-port="1" to-layer="298" to-port="1"/>
		<edge from-layer="298" from-port="2" to-layer="300" to-port="0"/>
		<edge from-layer="299" from-port="1" to-layer="300" to-port="1"/>
		<edge from-layer="300" from-port="2" to-layer="302" to-port="0"/>
		<edge from-layer="301" from-port="1" to-layer="302" to-port="1"/>
		<edge from-layer="302" from-port="2" to-layer="304" to-port="0"/>
		<edge from-layer="303" from-port="1" to-layer="304" to-port="1"/>
		<edge from-layer="304" from-port="2" to-layer="306" to-port="0"/>
		<edge from-layer="305" from-port="1" to-layer="306" to-port="1"/>
		<edge from-layer="274" from-port="2" to-layer="307" to-port="0"/>
		<edge from-layer="306" from-port="2" to-layer="307" to-port="1"/>
		<edge from-layer="307" from-port="2" to-layer="309" to-port="0"/>
		<edge from-layer="308" from-port="1" to-layer="309" to-port="1"/>
		<edge from-layer="309" from-port="2" to-layer="311" to-port="0"/>
		<edge from-layer="310" from-port="1" to-layer="311" to-port="1"/>
		<edge from-layer="311" from-port="2" to-layer="312" to-port="0"/>
		<edge from-layer="312" from-port="1" to-layer="314" to-port="0"/>
		<edge from-layer="313" from-port="1" to-layer="314" to-port="1"/>
		<edge from-layer="314" from-port="2" to-layer="316" to-port="0"/>
		<edge from-layer="315" from-port="1" to-layer="316" to-port="1"/>
		<edge from-layer="307" from-port="2" to-layer="318" to-port="0"/>
		<edge from-layer="317" from-port="1" to-layer="318" to-port="1"/>
		<edge from-layer="318" from-port="2" to-layer="320" to-port="0"/>
		<edge from-layer="319" from-port="1" to-layer="320" to-port="1"/>
		<edge from-layer="320" from-port="2" to-layer="321" to-port="0"/>
		<edge from-layer="321" from-port="1" to-layer="323" to-port="0"/>
		<edge from-layer="322" from-port="1" to-layer="323" to-port="1"/>
		<edge from-layer="323" from-port="2" to-layer="325" to-port="0"/>
		<edge from-layer="324" from-port="1" to-layer="325" to-port="1"/>
		<edge from-layer="325" from-port="2" to-layer="327" to-port="0"/>
		<edge from-layer="326" from-port="1" to-layer="327" to-port="1"/>
		<edge from-layer="327" from-port="2" to-layer="329" to-port="0"/>
		<edge from-layer="328" from-port="1" to-layer="329" to-port="1"/>
		<edge from-layer="329" from-port="2" to-layer="331" to-port="0"/>
		<edge from-layer="330" from-port="1" to-layer="331" to-port="1"/>
		<edge from-layer="331" from-port="2" to-layer="333" to-port="0"/>
		<edge from-layer="332" from-port="1" to-layer="333" to-port="1"/>
		<edge from-layer="333" from-port="2" to-layer="335" to-port="0"/>
		<edge from-layer="334" from-port="1" to-layer="335" to-port="1"/>
		<edge from-layer="335" from-port="2" to-layer="336" to-port="0"/>
		<edge from-layer="336" from-port="1" to-layer="338" to-port="0"/>
		<edge from-layer="337" from-port="1" to-layer="338" to-port="1"/>
		<edge from-layer="338" from-port="2" to-layer="340" to-port="0"/>
		<edge from-layer="339" from-port="1" to-layer="340" to-port="1"/>
		<edge from-layer="340" from-port="2" to-layer="342" to-port="0"/>
		<edge from-layer="341" from-port="1" to-layer="342" to-port="1"/>
		<edge from-layer="342" from-port="2" to-layer="344" to-port="0"/>
		<edge from-layer="343" from-port="1" to-layer="344" to-port="1"/>
		<edge from-layer="344" from-port="2" to-layer="346" to-port="0"/>
		<edge from-layer="345" from-port="1" to-layer="346" to-port="1"/>
		<edge from-layer="346" from-port="2" to-layer="348" to-port="0"/>
		<edge from-layer="347" from-port="1" to-layer="348" to-port="1"/>
		<edge from-layer="316" from-port="2" to-layer="349" to-port="0"/>
		<edge from-layer="348" from-port="2" to-layer="349" to-port="1"/>
		<edge from-layer="349" from-port="2" to-layer="351" to-port="0"/>
		<edge from-layer="350" from-port="1" to-layer="351" to-port="1"/>
		<edge from-layer="351" from-port="2" to-layer="353" to-port="0"/>
		<edge from-layer="352" from-port="1" to-layer="353" to-port="1"/>
		<edge from-layer="353" from-port="2" to-layer="354" to-port="0"/>
		<edge from-layer="354" from-port="1" to-layer="356" to-port="0"/>
		<edge from-layer="355" from-port="1" to-layer="356" to-port="1"/>
		<edge from-layer="356" from-port="2" to-layer="358" to-port="0"/>
		<edge from-layer="357" from-port="1" to-layer="358" to-port="1"/>
		<edge from-layer="358" from-port="2" to-layer="360" to-port="0"/>
		<edge from-layer="359" from-port="1" to-layer="360" to-port="1"/>
		<edge from-layer="358" from-port="2" to-layer="361" to-port="0"/>
		<edge from-layer="360" from-port="2" to-layer="361" to-port="1"/>
		<edge from-layer="349" from-port="2" to-layer="363" to-port="0"/>
		<edge from-layer="362" from-port="1" to-layer="363" to-port="1"/>
		<edge from-layer="363" from-port="2" to-layer="365" to-port="0"/>
		<edge from-layer="364" from-port="1" to-layer="365" to-port="1"/>
		<edge from-layer="365" from-port="2" to-layer="366" to-port="0"/>
		<edge from-layer="366" from-port="1" to-layer="368" to-port="0"/>
		<edge from-layer="367" from-port="1" to-layer="368" to-port="1"/>
		<edge from-layer="368" from-port="2" to-layer="370" to-port="0"/>
		<edge from-layer="369" from-port="1" to-layer="370" to-port="1"/>
		<edge from-layer="370" from-port="2" to-layer="372" to-port="0"/>
		<edge from-layer="371" from-port="1" to-layer="372" to-port="1"/>
		<edge from-layer="372" from-port="2" to-layer="374" to-port="0"/>
		<edge from-layer="373" from-port="1" to-layer="374" to-port="1"/>
		<edge from-layer="374" from-port="2" to-layer="376" to-port="0"/>
		<edge from-layer="375" from-port="1" to-layer="376" to-port="1"/>
		<edge from-layer="376" from-port="2" to-layer="378" to-port="0"/>
		<edge from-layer="377" from-port="1" to-layer="378" to-port="1"/>
		<edge from-layer="378" from-port="2" to-layer="380" to-port="0"/>
		<edge from-layer="379" from-port="1" to-layer="380" to-port="1"/>
		<edge from-layer="380" from-port="2" to-layer="381" to-port="0"/>
		<edge from-layer="381" from-port="1" to-layer="383" to-port="0"/>
		<edge from-layer="382" from-port="1" to-layer="383" to-port="1"/>
		<edge from-layer="383" from-port="2" to-layer="385" to-port="0"/>
		<edge from-layer="384" from-port="1" to-layer="385" to-port="1"/>
		<edge from-layer="385" from-port="2" to-layer="387" to-port="0"/>
		<edge from-layer="386" from-port="1" to-layer="387" to-port="1"/>
		<edge from-layer="387" from-port="2" to-layer="389" to-port="0"/>
		<edge from-layer="388" from-port="1" to-layer="389" to-port="1"/>
		<edge from-layer="389" from-port="2" to-layer="391" to-port="0"/>
		<edge from-layer="390" from-port="1" to-layer="391" to-port="1"/>
		<edge from-layer="391" from-port="2" to-layer="393" to-port="0"/>
		<edge from-layer="392" from-port="1" to-layer="393" to-port="1"/>
		<edge from-layer="361" from-port="2" to-layer="394" to-port="0"/>
		<edge from-layer="393" from-port="2" to-layer="394" to-port="1"/>
		<edge from-layer="394" from-port="2" to-layer="396" to-port="0"/>
		<edge from-layer="395" from-port="1" to-layer="396" to-port="1"/>
		<edge from-layer="396" from-port="2" to-layer="398" to-port="0"/>
		<edge from-layer="397" from-port="1" to-layer="398" to-port="1"/>
		<edge from-layer="398" from-port="2" to-layer="399" to-port="0"/>
		<edge from-layer="399" from-port="1" to-layer="401" to-port="0"/>
		<edge from-layer="400" from-port="1" to-layer="401" to-port="1"/>
		<edge from-layer="401" from-port="2" to-layer="403" to-port="0"/>
		<edge from-layer="402" from-port="1" to-layer="403" to-port="1"/>
		<edge from-layer="394" from-port="2" to-layer="405" to-port="0"/>
		<edge from-layer="404" from-port="1" to-layer="405" to-port="1"/>
		<edge from-layer="405" from-port="2" to-layer="407" to-port="0"/>
		<edge from-layer="406" from-port="1" to-layer="407" to-port="1"/>
		<edge from-layer="407" from-port="2" to-layer="408" to-port="0"/>
		<edge from-layer="408" from-port="1" to-layer="410" to-port="0"/>
		<edge from-layer="409" from-port="1" to-layer="410" to-port="1"/>
		<edge from-layer="410" from-port="2" to-layer="412" to-port="0"/>
		<edge from-layer="411" from-port="1" to-layer="412" to-port="1"/>
		<edge from-layer="412" from-port="2" to-layer="414" to-port="0"/>
		<edge from-layer="413" from-port="1" to-layer="414" to-port="1"/>
		<edge from-layer="414" from-port="2" to-layer="416" to-port="0"/>
		<edge from-layer="415" from-port="1" to-layer="416" to-port="1"/>
		<edge from-layer="416" from-port="2" to-layer="418" to-port="0"/>
		<edge from-layer="417" from-port="1" to-layer="418" to-port="1"/>
		<edge from-layer="418" from-port="2" to-layer="420" to-port="0"/>
		<edge from-layer="419" from-port="1" to-layer="420" to-port="1"/>
		<edge from-layer="420" from-port="2" to-layer="422" to-port="0"/>
		<edge from-layer="421" from-port="1" to-layer="422" to-port="1"/>
		<edge from-layer="422" from-port="2" to-layer="423" to-port="0"/>
		<edge from-layer="423" from-port="1" to-layer="425" to-port="0"/>
		<edge from-layer="424" from-port="1" to-layer="425" to-port="1"/>
		<edge from-layer="425" from-port="2" to-layer="427" to-port="0"/>
		<edge from-layer="426" from-port="1" to-layer="427" to-port="1"/>
		<edge from-layer="427" from-port="2" to-layer="429" to-port="0"/>
		<edge from-layer="428" from-port="1" to-layer="429" to-port="1"/>
		<edge from-layer="429" from-port="2" to-layer="431" to-port="0"/>
		<edge from-layer="430" from-port="1" to-layer="431" to-port="1"/>
		<edge from-layer="431" from-port="2" to-layer="433" to-port="0"/>
		<edge from-layer="432" from-port="1" to-layer="433" to-port="1"/>
		<edge from-layer="433" from-port="2" to-layer="435" to-port="0"/>
		<edge from-layer="434" from-port="1" to-layer="435" to-port="1"/>
		<edge from-layer="403" from-port="2" to-layer="436" to-port="0"/>
		<edge from-layer="435" from-port="2" to-layer="436" to-port="1"/>
		<edge from-layer="436" from-port="2" to-layer="438" to-port="0"/>
		<edge from-layer="437" from-port="1" to-layer="438" to-port="1"/>
		<edge from-layer="438" from-port="2" to-layer="440" to-port="0"/>
		<edge from-layer="439" from-port="1" to-layer="440" to-port="1"/>
		<edge from-layer="440" from-port="2" to-layer="441" to-port="0"/>
		<edge from-layer="441" from-port="1" to-layer="443" to-port="0"/>
		<edge from-layer="442" from-port="1" to-layer="443" to-port="1"/>
		<edge from-layer="443" from-port="2" to-layer="445" to-port="0"/>
		<edge from-layer="444" from-port="1" to-layer="445" to-port="1"/>
		<edge from-layer="436" from-port="2" to-layer="447" to-port="0"/>
		<edge from-layer="446" from-port="1" to-layer="447" to-port="1"/>
		<edge from-layer="447" from-port="2" to-layer="449" to-port="0"/>
		<edge from-layer="448" from-port="1" to-layer="449" to-port="1"/>
		<edge from-layer="449" from-port="2" to-layer="450" to-port="0"/>
		<edge from-layer="450" from-port="1" to-layer="452" to-port="0"/>
		<edge from-layer="451" from-port="1" to-layer="452" to-port="1"/>
		<edge from-layer="452" from-port="2" to-layer="454" to-port="0"/>
		<edge from-layer="453" from-port="1" to-layer="454" to-port="1"/>
		<edge from-layer="454" from-port="2" to-layer="456" to-port="0"/>
		<edge from-layer="455" from-port="1" to-layer="456" to-port="1"/>
		<edge from-layer="456" from-port="2" to-layer="458" to-port="0"/>
		<edge from-layer="457" from-port="1" to-layer="458" to-port="1"/>
		<edge from-layer="458" from-port="2" to-layer="460" to-port="0"/>
		<edge from-layer="459" from-port="1" to-layer="460" to-port="1"/>
		<edge from-layer="460" from-port="2" to-layer="462" to-port="0"/>
		<edge from-layer="461" from-port="1" to-layer="462" to-port="1"/>
		<edge from-layer="462" from-port="2" to-layer="464" to-port="0"/>
		<edge from-layer="463" from-port="1" to-layer="464" to-port="1"/>
		<edge from-layer="464" from-port="2" to-layer="465" to-port="0"/>
		<edge from-layer="465" from-port="1" to-layer="467" to-port="0"/>
		<edge from-layer="466" from-port="1" to-layer="467" to-port="1"/>
		<edge from-layer="467" from-port="2" to-layer="469" to-port="0"/>
		<edge from-layer="468" from-port="1" to-layer="469" to-port="1"/>
		<edge from-layer="469" from-port="2" to-layer="471" to-port="0"/>
		<edge from-layer="470" from-port="1" to-layer="471" to-port="1"/>
		<edge from-layer="471" from-port="2" to-layer="473" to-port="0"/>
		<edge from-layer="472" from-port="1" to-layer="473" to-port="1"/>
		<edge from-layer="473" from-port="2" to-layer="475" to-port="0"/>
		<edge from-layer="474" from-port="1" to-layer="475" to-port="1"/>
		<edge from-layer="475" from-port="2" to-layer="477" to-port="0"/>
		<edge from-layer="476" from-port="1" to-layer="477" to-port="1"/>
		<edge from-layer="445" from-port="2" to-layer="478" to-port="0"/>
		<edge from-layer="477" from-port="2" to-layer="478" to-port="1"/>
		<edge from-layer="478" from-port="2" to-layer="480" to-port="0"/>
		<edge from-layer="479" from-port="1" to-layer="480" to-port="1"/>
		<edge from-layer="480" from-port="2" to-layer="482" to-port="0"/>
		<edge from-layer="481" from-port="1" to-layer="482" to-port="1"/>
		<edge from-layer="482" from-port="2" to-layer="483" to-port="0"/>
		<edge from-layer="483" from-port="1" to-layer="485" to-port="0"/>
		<edge from-layer="484" from-port="1" to-layer="485" to-port="1"/>
		<edge from-layer="485" from-port="2" to-layer="487" to-port="0"/>
		<edge from-layer="486" from-port="1" to-layer="487" to-port="1"/>
		<edge from-layer="478" from-port="2" to-layer="489" to-port="0"/>
		<edge from-layer="488" from-port="1" to-layer="489" to-port="1"/>
		<edge from-layer="489" from-port="2" to-layer="491" to-port="0"/>
		<edge from-layer="490" from-port="1" to-layer="491" to-port="1"/>
		<edge from-layer="491" from-port="2" to-layer="492" to-port="0"/>
		<edge from-layer="492" from-port="1" to-layer="494" to-port="0"/>
		<edge from-layer="493" from-port="1" to-layer="494" to-port="1"/>
		<edge from-layer="494" from-port="2" to-layer="496" to-port="0"/>
		<edge from-layer="495" from-port="1" to-layer="496" to-port="1"/>
		<edge from-layer="496" from-port="2" to-layer="498" to-port="0"/>
		<edge from-layer="497" from-port="1" to-layer="498" to-port="1"/>
		<edge from-layer="498" from-port="2" to-layer="500" to-port="0"/>
		<edge from-layer="499" from-port="1" to-layer="500" to-port="1"/>
		<edge from-layer="500" from-port="2" to-layer="502" to-port="0"/>
		<edge from-layer="501" from-port="1" to-layer="502" to-port="1"/>
		<edge from-layer="502" from-port="2" to-layer="504" to-port="0"/>
		<edge from-layer="503" from-port="1" to-layer="504" to-port="1"/>
		<edge from-layer="504" from-port="2" to-layer="506" to-port="0"/>
		<edge from-layer="505" from-port="1" to-layer="506" to-port="1"/>
		<edge from-layer="506" from-port="2" to-layer="507" to-port="0"/>
		<edge from-layer="507" from-port="1" to-layer="509" to-port="0"/>
		<edge from-layer="508" from-port="1" to-layer="509" to-port="1"/>
		<edge from-layer="509" from-port="2" to-layer="511" to-port="0"/>
		<edge from-layer="510" from-port="1" to-layer="511" to-port="1"/>
		<edge from-layer="511" from-port="2" to-layer="513" to-port="0"/>
		<edge from-layer="512" from-port="1" to-layer="513" to-port="1"/>
		<edge from-layer="513" from-port="2" to-layer="515" to-port="0"/>
		<edge from-layer="514" from-port="1" to-layer="515" to-port="1"/>
		<edge from-layer="515" from-port="2" to-layer="517" to-port="0"/>
		<edge from-layer="516" from-port="1" to-layer="517" to-port="1"/>
		<edge from-layer="517" from-port="2" to-layer="519" to-port="0"/>
		<edge from-layer="518" from-port="1" to-layer="519" to-port="1"/>
		<edge from-layer="487" from-port="2" to-layer="520" to-port="0"/>
		<edge from-layer="519" from-port="2" to-layer="520" to-port="1"/>
		<edge from-layer="520" from-port="2" to-layer="522" to-port="0"/>
		<edge from-layer="521" from-port="1" to-layer="522" to-port="1"/>
		<edge from-layer="522" from-port="2" to-layer="524" to-port="0"/>
		<edge from-layer="523" from-port="1" to-layer="524" to-port="1"/>
		<edge from-layer="524" from-port="2" to-layer="525" to-port="0"/>
		<edge from-layer="525" from-port="1" to-layer="527" to-port="0"/>
		<edge from-layer="526" from-port="1" to-layer="527" to-port="1"/>
		<edge from-layer="527" from-port="2" to-layer="529" to-port="0"/>
		<edge from-layer="528" from-port="1" to-layer="529" to-port="1"/>
		<edge from-layer="529" from-port="2" to-layer="531" to-port="0"/>
		<edge from-layer="530" from-port="1" to-layer="531" to-port="1"/>
		<edge from-layer="529" from-port="2" to-layer="532" to-port="0"/>
		<edge from-layer="531" from-port="2" to-layer="532" to-port="1"/>
		<edge from-layer="520" from-port="2" to-layer="534" to-port="0"/>
		<edge from-layer="533" from-port="1" to-layer="534" to-port="1"/>
		<edge from-layer="534" from-port="2" to-layer="536" to-port="0"/>
		<edge from-layer="535" from-port="1" to-layer="536" to-port="1"/>
		<edge from-layer="536" from-port="2" to-layer="537" to-port="0"/>
		<edge from-layer="537" from-port="1" to-layer="539" to-port="0"/>
		<edge from-layer="538" from-port="1" to-layer="539" to-port="1"/>
		<edge from-layer="539" from-port="2" to-layer="541" to-port="0"/>
		<edge from-layer="540" from-port="1" to-layer="541" to-port="1"/>
		<edge from-layer="541" from-port="2" to-layer="543" to-port="0"/>
		<edge from-layer="542" from-port="1" to-layer="543" to-port="1"/>
		<edge from-layer="543" from-port="2" to-layer="545" to-port="0"/>
		<edge from-layer="544" from-port="1" to-layer="545" to-port="1"/>
		<edge from-layer="545" from-port="2" to-layer="547" to-port="0"/>
		<edge from-layer="546" from-port="1" to-layer="547" to-port="1"/>
		<edge from-layer="547" from-port="2" to-layer="549" to-port="0"/>
		<edge from-layer="548" from-port="1" to-layer="549" to-port="1"/>
		<edge from-layer="549" from-port="2" to-layer="551" to-port="0"/>
		<edge from-layer="550" from-port="1" to-layer="551" to-port="1"/>
		<edge from-layer="551" from-port="2" to-layer="552" to-port="0"/>
		<edge from-layer="552" from-port="1" to-layer="554" to-port="0"/>
		<edge from-layer="553" from-port="1" to-layer="554" to-port="1"/>
		<edge from-layer="554" from-port="2" to-layer="556" to-port="0"/>
		<edge from-layer="555" from-port="1" to-layer="556" to-port="1"/>
		<edge from-layer="556" from-port="2" to-layer="558" to-port="0"/>
		<edge from-layer="557" from-port="1" to-layer="558" to-port="1"/>
		<edge from-layer="558" from-port="2" to-layer="560" to-port="0"/>
		<edge from-layer="559" from-port="1" to-layer="560" to-port="1"/>
		<edge from-layer="560" from-port="2" to-layer="562" to-port="0"/>
		<edge from-layer="561" from-port="1" to-layer="562" to-port="1"/>
		<edge from-layer="562" from-port="2" to-layer="564" to-port="0"/>
		<edge from-layer="563" from-port="1" to-layer="564" to-port="1"/>
		<edge from-layer="532" from-port="2" to-layer="565" to-port="0"/>
		<edge from-layer="564" from-port="2" to-layer="565" to-port="1"/>
		<edge from-layer="565" from-port="2" to-layer="567" to-port="0"/>
		<edge from-layer="566" from-port="1" to-layer="567" to-port="1"/>
		<edge from-layer="567" from-port="2" to-layer="569" to-port="0"/>
		<edge from-layer="568" from-port="1" to-layer="569" to-port="1"/>
		<edge from-layer="569" from-port="2" to-layer="570" to-port="0"/>
		<edge from-layer="570" from-port="1" to-layer="572" to-port="0"/>
		<edge from-layer="571" from-port="1" to-layer="572" to-port="1"/>
		<edge from-layer="572" from-port="2" to-layer="574" to-port="0"/>
		<edge from-layer="573" from-port="1" to-layer="574" to-port="1"/>
		<edge from-layer="565" from-port="2" to-layer="576" to-port="0"/>
		<edge from-layer="575" from-port="1" to-layer="576" to-port="1"/>
		<edge from-layer="576" from-port="2" to-layer="578" to-port="0"/>
		<edge from-layer="577" from-port="1" to-layer="578" to-port="1"/>
		<edge from-layer="578" from-port="2" to-layer="579" to-port="0"/>
		<edge from-layer="579" from-port="1" to-layer="581" to-port="0"/>
		<edge from-layer="580" from-port="1" to-layer="581" to-port="1"/>
		<edge from-layer="581" from-port="2" to-layer="583" to-port="0"/>
		<edge from-layer="582" from-port="1" to-layer="583" to-port="1"/>
		<edge from-layer="583" from-port="2" to-layer="585" to-port="0"/>
		<edge from-layer="584" from-port="1" to-layer="585" to-port="1"/>
		<edge from-layer="585" from-port="2" to-layer="587" to-port="0"/>
		<edge from-layer="586" from-port="1" to-layer="587" to-port="1"/>
		<edge from-layer="587" from-port="2" to-layer="589" to-port="0"/>
		<edge from-layer="588" from-port="1" to-layer="589" to-port="1"/>
		<edge from-layer="589" from-port="2" to-layer="591" to-port="0"/>
		<edge from-layer="590" from-port="1" to-layer="591" to-port="1"/>
		<edge from-layer="591" from-port="2" to-layer="593" to-port="0"/>
		<edge from-layer="592" from-port="1" to-layer="593" to-port="1"/>
		<edge from-layer="593" from-port="2" to-layer="594" to-port="0"/>
		<edge from-layer="594" from-port="1" to-layer="596" to-port="0"/>
		<edge from-layer="595" from-port="1" to-layer="596" to-port="1"/>
		<edge from-layer="596" from-port="2" to-layer="598" to-port="0"/>
		<edge from-layer="597" from-port="1" to-layer="598" to-port="1"/>
		<edge from-layer="598" from-port="2" to-layer="600" to-port="0"/>
		<edge from-layer="599" from-port="1" to-layer="600" to-port="1"/>
		<edge from-layer="600" from-port="2" to-layer="602" to-port="0"/>
		<edge from-layer="601" from-port="1" to-layer="602" to-port="1"/>
		<edge from-layer="602" from-port="2" to-layer="604" to-port="0"/>
		<edge from-layer="603" from-port="1" to-layer="604" to-port="1"/>
		<edge from-layer="604" from-port="2" to-layer="606" to-port="0"/>
		<edge from-layer="605" from-port="1" to-layer="606" to-port="1"/>
		<edge from-layer="574" from-port="2" to-layer="607" to-port="0"/>
		<edge from-layer="606" from-port="2" to-layer="607" to-port="1"/>
		<edge from-layer="607" from-port="2" to-layer="609" to-port="0"/>
		<edge from-layer="608" from-port="1" to-layer="609" to-port="1"/>
		<edge from-layer="609" from-port="2" to-layer="611" to-port="0"/>
		<edge from-layer="610" from-port="1" to-layer="611" to-port="1"/>
		<edge from-layer="611" from-port="2" to-layer="612" to-port="0"/>
		<edge from-layer="612" from-port="1" to-layer="614" to-port="0"/>
		<edge from-layer="613" from-port="1" to-layer="614" to-port="1"/>
		<edge from-layer="614" from-port="2" to-layer="616" to-port="0"/>
		<edge from-layer="615" from-port="1" to-layer="616" to-port="1"/>
		<edge from-layer="607" from-port="2" to-layer="618" to-port="0"/>
		<edge from-layer="617" from-port="1" to-layer="618" to-port="1"/>
		<edge from-layer="618" from-port="2" to-layer="620" to-port="0"/>
		<edge from-layer="619" from-port="1" to-layer="620" to-port="1"/>
		<edge from-layer="620" from-port="2" to-layer="621" to-port="0"/>
		<edge from-layer="621" from-port="1" to-layer="623" to-port="0"/>
		<edge from-layer="622" from-port="1" to-layer="623" to-port="1"/>
		<edge from-layer="623" from-port="2" to-layer="625" to-port="0"/>
		<edge from-layer="624" from-port="1" to-layer="625" to-port="1"/>
		<edge from-layer="625" from-port="2" to-layer="627" to-port="0"/>
		<edge from-layer="626" from-port="1" to-layer="627" to-port="1"/>
		<edge from-layer="627" from-port="2" to-layer="629" to-port="0"/>
		<edge from-layer="628" from-port="1" to-layer="629" to-port="1"/>
		<edge from-layer="629" from-port="2" to-layer="631" to-port="0"/>
		<edge from-layer="630" from-port="1" to-layer="631" to-port="1"/>
		<edge from-layer="631" from-port="2" to-layer="633" to-port="0"/>
		<edge from-layer="632" from-port="1" to-layer="633" to-port="1"/>
		<edge from-layer="633" from-port="2" to-layer="635" to-port="0"/>
		<edge from-layer="634" from-port="1" to-layer="635" to-port="1"/>
		<edge from-layer="635" from-port="2" to-layer="636" to-port="0"/>
		<edge from-layer="636" from-port="1" to-layer="638" to-port="0"/>
		<edge from-layer="637" from-port="1" to-layer="638" to-port="1"/>
		<edge from-layer="638" from-port="2" to-layer="640" to-port="0"/>
		<edge from-layer="639" from-port="1" to-layer="640" to-port="1"/>
		<edge from-layer="640" from-port="2" to-layer="642" to-port="0"/>
		<edge from-layer="641" from-port="1" to-layer="642" to-port="1"/>
		<edge from-layer="642" from-port="2" to-layer="644" to-port="0"/>
		<edge from-layer="643" from-port="1" to-layer="644" to-port="1"/>
		<edge from-layer="644" from-port="2" to-layer="646" to-port="0"/>
		<edge from-layer="645" from-port="1" to-layer="646" to-port="1"/>
		<edge from-layer="646" from-port="2" to-layer="648" to-port="0"/>
		<edge from-layer="647" from-port="1" to-layer="648" to-port="1"/>
		<edge from-layer="616" from-port="2" to-layer="649" to-port="0"/>
		<edge from-layer="648" from-port="2" to-layer="649" to-port="1"/>
		<edge from-layer="649" from-port="2" to-layer="651" to-port="0"/>
		<edge from-layer="650" from-port="1" to-layer="651" to-port="1"/>
		<edge from-layer="651" from-port="2" to-layer="653" to-port="0"/>
		<edge from-layer="652" from-port="1" to-layer="653" to-port="1"/>
		<edge from-layer="653" from-port="2" to-layer="654" to-port="0"/>
		<edge from-layer="654" from-port="1" to-layer="656" to-port="0"/>
		<edge from-layer="655" from-port="1" to-layer="656" to-port="1"/>
		<edge from-layer="656" from-port="2" to-layer="658" to-port="0"/>
		<edge from-layer="657" from-port="1" to-layer="658" to-port="1"/>
		<edge from-layer="649" from-port="2" to-layer="660" to-port="0"/>
		<edge from-layer="659" from-port="1" to-layer="660" to-port="1"/>
		<edge from-layer="660" from-port="2" to-layer="662" to-port="0"/>
		<edge from-layer="661" from-port="1" to-layer="662" to-port="1"/>
		<edge from-layer="662" from-port="2" to-layer="663" to-port="0"/>
		<edge from-layer="663" from-port="1" to-layer="665" to-port="0"/>
		<edge from-layer="664" from-port="1" to-layer="665" to-port="1"/>
		<edge from-layer="665" from-port="2" to-layer="667" to-port="0"/>
		<edge from-layer="666" from-port="1" to-layer="667" to-port="1"/>
		<edge from-layer="667" from-port="2" to-layer="669" to-port="0"/>
		<edge from-layer="668" from-port="1" to-layer="669" to-port="1"/>
		<edge from-layer="669" from-port="2" to-layer="671" to-port="0"/>
		<edge from-layer="670" from-port="1" to-layer="671" to-port="1"/>
		<edge from-layer="671" from-port="2" to-layer="673" to-port="0"/>
		<edge from-layer="672" from-port="1" to-layer="673" to-port="1"/>
		<edge from-layer="673" from-port="2" to-layer="675" to-port="0"/>
		<edge from-layer="674" from-port="1" to-layer="675" to-port="1"/>
		<edge from-layer="675" from-port="2" to-layer="677" to-port="0"/>
		<edge from-layer="676" from-port="1" to-layer="677" to-port="1"/>
		<edge from-layer="677" from-port="2" to-layer="678" to-port="0"/>
		<edge from-layer="678" from-port="1" to-layer="680" to-port="0"/>
		<edge from-layer="679" from-port="1" to-layer="680" to-port="1"/>
		<edge from-layer="680" from-port="2" to-layer="682" to-port="0"/>
		<edge from-layer="681" from-port="1" to-layer="682" to-port="1"/>
		<edge from-layer="682" from-port="2" to-layer="684" to-port="0"/>
		<edge from-layer="683" from-port="1" to-layer="684" to-port="1"/>
		<edge from-layer="684" from-port="2" to-layer="686" to-port="0"/>
		<edge from-layer="685" from-port="1" to-layer="686" to-port="1"/>
		<edge from-layer="686" from-port="2" to-layer="688" to-port="0"/>
		<edge from-layer="687" from-port="1" to-layer="688" to-port="1"/>
		<edge from-layer="688" from-port="2" to-layer="690" to-port="0"/>
		<edge from-layer="689" from-port="1" to-layer="690" to-port="1"/>
		<edge from-layer="658" from-port="2" to-layer="691" to-port="0"/>
		<edge from-layer="690" from-port="2" to-layer="691" to-port="1"/>
		<edge from-layer="691" from-port="2" to-layer="693" to-port="0"/>
		<edge from-layer="692" from-port="1" to-layer="693" to-port="1"/>
		<edge from-layer="693" from-port="2" to-layer="695" to-port="0"/>
		<edge from-layer="694" from-port="1" to-layer="695" to-port="1"/>
		<edge from-layer="695" from-port="2" to-layer="696" to-port="0"/>
		<edge from-layer="696" from-port="1" to-layer="698" to-port="0"/>
		<edge from-layer="697" from-port="1" to-layer="698" to-port="1"/>
		<edge from-layer="698" from-port="2" to-layer="700" to-port="0"/>
		<edge from-layer="699" from-port="1" to-layer="700" to-port="1"/>
		<edge from-layer="700" from-port="2" to-layer="702" to-port="0"/>
		<edge from-layer="701" from-port="1" to-layer="702" to-port="1"/>
		<edge from-layer="702" from-port="2" to-layer="704" to-port="0"/>
		<edge from-layer="703" from-port="1" to-layer="704" to-port="1"/>
		<edge from-layer="704" from-port="2" to-layer="705" to-port="0"/>
		<edge from-layer="705" from-port="1" to-layer="706" to-port="0"/>
	</edges>
	<meta_data>
		<MO_version value=""/>
		<cli_parameters>
			<blobs_as_inputs value="True"/>
			<data_type value="float"/>
			<disable_nhwc_to_nchw value="False"/>
			<disable_resnet_optimization value="False"/>
			<disable_weights_compression value="False"/>
			<enable_concat_optimization value="False"/>
			<extensions value="DIR"/>
			<framework value="tf"/>
			<freeze_placeholder_with_value value="{}"/>
			<generate_deprecated_IR_V2 value="False"/>
			<generate_deprecated_IR_V7 value="False"/>
			<generate_experimental_IR_V10 value="True"/>
			<input_model value="DIR/tf_model.pb"/>
			<input_model_is_text value="False"/>
			<input_shape value="[1,17920,1]"/>
			<keep_quantize_ops_in_IR value="True"/>
			<keep_shape_ops value="False"/>
			<log_level value="ERROR"/>
			<mean_scale_values value="{}"/>
			<mean_values value="()"/>
			<model_name value="ecg_17920_ir10_fp32"/>
			<move_to_preprocess value="False"/>
			<output_dir value="DIR"/>
			<placeholder_data_types value="{}"/>
			<placeholder_shapes value="[    1 17920     1]"/>
			<progress value="False"/>
			<reverse_input_channels value="False"/>
			<scale_values value="()"/>
			<silent value="False"/>
			<stream_output value="False"/>
			<unset unset_cli_parameters="batch, disable_fusing, disable_gfusing, finegrain_fusing, input, input_checkpoint, input_meta_graph, output, saved_model_dir, saved_model_tags, scale, tensorboard_logdir, tensorflow_custom_layer_libraries, tensorflow_custom_operations_config_update, tensorflow_object_detection_api_pipeline_config, tensorflow_use_custom_operations_config, transformations_config"/>
		</cli_parameters>
	</meta_data>
</net>
